logs/CrowdEnv/gail/seed0-20240227-1939/model/step5000.pt (torch, 100597 bytes, 56 tensors)

log_stds f4 [1, 2]
00000000: 7aec 8a3c c942 d1ba
0.016958464 -0.0015965338

net.subgraph.layer_seq.glp_0.mlp.0.weight f4 [32, 5]
00000000: 6eb7 75ba 50c0 703e c7b9 bdbe 8d25 abbe
00000010: f81f 3ebe 8713 f43d ca8c 823b 0103 b33e
00000020: c9ad bbbc 8b63 f53d cd6a 0cbe bf03 dabd
00000030: 189f dcbe 3584 a0be 5f60 34be 9887 e73a
00000040: b8a8 1d3e 4f33 813e 2367 a6be a6a0 56be
00000050: b049 273e 5dcb bc3e 7f45 babd 3ff8 a73e
00000060: a981 b7bd 4310 123d 59ad d23e e9e9 d9be
00000070: 100d 8ebe 4748 e1bd e994 40be 74fc ca3e
00000080: 8642 98be fc53 48be 9255 98be d490 cdbe
00000090: e0b2 87be 95bf c33e b4ad 593e 2c62 643e
000000a0: 98c7 f63c d831 69be ac6e a63d b289 d4be
000000b0: 851c a1be 6d47 5bbe 6bab 8e3e 3ec9 8c3e
000000c0: 9eea 43be 9f88 c9bb 045f 9b3e 66e1 e43e
000000d0: fd7d 443e a4d2 963d 710e 9c3e 66f3 8bbe
000000e0: 9357 9f3d 4eca b8be f644 a1be eb5f 70be
000000f0: 00d1 453e 09d4 313e d365 8bbe a0ad 0a3e
00000100: 46e6 803e cf5b 93bd 82e2 2a3c 51f6 b13d
00000110: 5b1e 873e 48e9 d73e a18d a9be b1f9 20be
00000120: 495f 423e ffc7 c13e 1368 c83e 4a2f c83e
00000130: 6381 a93d 3b44 c5be 3c79 083d 7d6b 97be
00000140: 4482 d4be d778 cb3e f52b b43e 71e8 eabe
00000150: f5c0 993d c8b5 91bd 2afe 9bbd 7e3e 4dbe
00000160: 08bb 303e d41f 85be 61e9 123e 103f 643e
00000170: 7b3f a03e a83e 1f3e 1439 e9be 21dc 88be
00000180: 4feb 523e e061 ee3d b539 b9be 1deb 8bbe
00000190: 35e8 d23e c5e9 983e 14fd 4cbe 06f4 f3bd
000001a0: fa1b dbbe 4bff b9ba 2af7 b7be 2615 b1be
000001b0: 053a 3dbd 2488 913d 06de 31be 0998 843e
000001c0: 45ec 85be 4cb5 cf3e 929d 9d3e 2ced cbbe
000001d0: 28a2 a8bd 2d36 6aba 8027 af3d 277c df3d
000001e0: 6399 3a3e e8c4 1f3d 3717 5cbe 4209 643e
000001f0: 9c5e dfbe a820 87be c5d9 d0bd d05c 51be
00000200: 02ef 1abe 130e c7be 4fd0 abbd adee a93d
00000210: de0c 8fbe 26c9 18bd 1cf2 a13e 7fcd 52bd
00000220: 494a d53b 82cf 36bd 1c3e ac3d 4e26 8d3e
00000230: 60ec df3e 3fe8 963e 207c df3e 9aae a4bc
00000240: ff4f c7be 1207 65be 1f3d a03e 75ad abbc
00000250: d76e 5abe 2a1a a6be 3920 d5be 9d3e bbbe
00000260: 3a15 b1bd b8e3 7a3e a6a9 753e 254f e2be
00000270: a7e5 933e 4c77 b8be e039 bebd 00f4 41be
-0.00093733415 0.23510861 -0.370558 -0.33427086 -0.18566883 0.11917787 0.0039840685 0.3496323
-0.022910016 0.11981877 -0.13712616 -0.10645246 -0.4309013 -0.31350866 -0.17614888 0.0017664311
0.15396392 0.25234458 -0.32500562 -0.2095972 0.16336703 0.36873904 -0.090952866 0.32806584
-0.089602776 0.03566004 0.4114788 -0.42561272 -0.2774434 -0.11000114 -0.18806805 0.3964573
-0.29738253 -0.19563287 -0.29752785 -0.40149558 -0.26503658 0.38232103 0.21257669 0.22303075
0.03012447 -0.2277292 0.08126578 -0.41511303 -0.3146707 -0.21413966 0.27865157 0.27497286
-0.19132468 -0.0061503197 0.3034593 0.44703215 0.19188686 0.07364395 0.30479768 -0.27334136
0.07780375 -0.36091846 -0.31497926 -0.2347409 0.19318008 0.17366041 -0.27226123 0.13542795
0.25175685 -0.071952455 0.01042998 0.08689559 0.26390347 0.42170167 -0.33115867 -0.1572025
0.18981661 0.37847897 0.39141902 0.3909858 0.08276632 -0.38528618 0.033318743 -0.29574195
-0.41505635 0.3974063 0.35189787 -0.45880464 0.07507507 -0.0711475 -0.07616837 -0.2004337
0.17258847 -0.26000845 0.1434684 0.22289681 0.31298432 0.15551245 -0.4555136 -0.26730445
0.20597576 0.11639762 -0.3617684 -0.27327815 0.41192785 0.29865852 -0.20018417 -0.11911778
-0.42794782 -0.0014190463 -0.3593076 -0.34586447 -0.04619791 0.07106045 -0.17369851 0.25897244
-0.26156822 0.40568006 0.3078428 -0.39829385 -0.08234054 -0.00089344644 0.08552456 0.10912352
0.18222575 0.039006144 -0.21493231 0.22269157 -0.4362687 -0.26392102 -0.10197786 -0.20445561
-0.15130237 -0.38877925 -0.08389341 0.08297477 -0.27939504 -0.037301205 0.31630027 -0.051465508
0.0065090996 -0.04463149 0.08410284 0.27568287 0.43735027 0.29474065 0.43649387 -0.020102788
-0.3892822 -0.22365978 0.31296632 -0.020956734 -0.21331345 -0.32441837 -0.41626146 -0.36571208
-0.08646627 0.2450093 0.23990497 -0.44201007 0.28886148 -0.36028516 -0.092883825 -0.18940735

net.subgraph.layer_seq.glp_0.mlp.0.bias f4 [32]
00000000: 8104 a5bd 3b5e a7bd bec4 d1be 88d5 cabe
00000010: 4c79 6cbd 0421 113c a681 46be 313b 243e
00000020: 6b71 cdbe 1d15 4ebd 5b34 cc3e 37b3 3cbe
00000030: 6479 c43e 1c44 353e 1903 d1be f602 9b3e
00000040: 7097 f7bc c0af 54be 89fb b33e 77f1 bebe
00000050: e4b1 803d 38d4 b3bd c162 9a3e 1977 003e
00000060: 5acc 553e d374 0e3e 897c e4bd ffad d3bd
00000070: 8f47 b8be b7fe 863e d15e be3e faec 9b3e
-0.080575 -0.0817227 -0.40970415 -0.39616036 -0.057732865 0.008857969 -0.19385394 0.16038205
-0.40125594 -0.050313104 0.39883694 -0.1842774 0.38373864 0.17701763 -0.40822676 0.30275697
-0.030223578 -0.20770168 0.35152844 -0.37293598 0.0628393 -0.08780712 0.30153468 0.12545432
0.20878735 0.13911752 -0.11156566 -0.103359215 -0.35992095 0.26366207 0.37181714 0.30454236

net.subgraph.layer_seq.glp_0.mlp.1.weight f4 [32]
00000000: 3c4b 803f 182f 803f 11da 813f f8a7 803f
00000010: 4e57 7f3f f8af 813f b566 813f 4665 7e3f
00000020: 071c 813f 19b6 7c3f 157f 813f 81e5 823f
00000030: cb67 7b3f 67a5 7d3f f778 803f 948f 813f
00000040: 4799 823f b4ea 7f3f dc19 7d3f 88a4 803f
00000050: de10 7f3f fedb 823f 1f8c 7e3f 8418 813f
00000060: 400b 813f d8cf 7c3f 23bf 7e3f 3809 7e3f
00000070: 69e7 813f 8855 823f f694 813f 864c 823f
1.002296 1.0014372 1.0144674 1.005126 0.9974259 1.0131826 1.0109469 0.9937328
1.0086678 0.9871536 1.0116907 1.0226289 0.9820525 0.9908051 1.0036916 1.0121942
1.0203027 0.99967504 0.98867583 1.0050211 0.9963511 1.0223386 0.9943256 1.0085607
1.0081558 0.98754644 0.995104 0.99232817 1.0148746 1.0182352 1.0123584 1.0179603

net.subgraph.layer_seq.glp_0.mlp.1.bias f4 [32]
00000000: b08f 323c dae7 8f3b 04df da3b 27bd fbba
00000010: ce60 c8ba 19df 713b d42d 033c 7714 0cbc
00000020: c86b 0c3c 6f39 803a 7eb5 4b3c 3049 923c
00000030: 71d1 39bc 47e6 38bb ecab 0b3c 9c41 c03b
00000040: 8fc9 793c f57b a1bb 858b 17bc 2e1b 8a3b
00000050: 1ad9 dc3b 6ce8 2d3c 6436 c4bb 3b69 af3c
00000060: 066b 033c 36b3 70bc 9cfe 12bc 7d3d 0dbc
00000070: 7b15 633c 121e 5d3c f82c 813c 09c6 003b
0.010898516 0.0043916525 0.0066794176 -0.0019206152 -0.0015287639 0.0036906658 0.008006532 -0.008549801
0.008570619 0.0009782742 0.012433408 0.017857164 -0.011341439 -0.0028213428 0.008524876 0.0058671962
0.015245809 -0.004928107 -0.009249573 0.004214666 0.0067397477 0.010614496 -0.005987929 0.021412482
0.008021122 -0.014691165 -0.008971836 -0.008620617 0.013860102 0.013495939 0.015768513 0.0019649288

net.subgraph.layer_seq.glp_0.mlp.3.weight f4 [5, 32]
00000000: a8cf fbbd 1f67 cf3b 95c8 fcbd 5ff2 c2bd
00000010: 1f45 e6bd dee5 503d cc92 efbd 6391 333c
00000020: 736d 183c 014c cc3d 6d51 00be 5610 f5bd
00000030: 5212 b2bd 0b19 0a3e ce9f 8dbd 433c 2a3e
00000040: a758 413d 8f48 3a3c 3778 083c 59ba 26bd
00000050: 22f0 993c 68ed 26bd e853 d63b 5084 1c3d
00000060: a607 ffbd 5154 a1bd 02a6 183e 3904 0fbe
00000070: 7e43 b0bc 348f 453e 326b a93d d9cc b13c
00000080: 175c 2fbe 335c cb3d dc68 0ebe 428c 25bd
00000090: ea5d 55bd 3e28 42bd 4cfb 94bc 5de8 1e3e
000000a0: 6ad7 ba3c 8b33 183e e95c e53d daf0 04be
000000b0: 1bfe a63d b462 e8bd 85d1 8cbd e947 663d
000000c0: f40d 2a3d 51c2 f13d 3915 54bd f100 f0bb
000000d0: 6260 c53d bffc 2fbe 8d3a 033e 0c63 1bbe
000000e0: 2a12 f03b 10f1 17bd 4cb9 d5bd f698 093d
000000f0: 82b8 223e 49aa 82bd 6026 d4bd 9b2f a8bd
00000100: 1bfd 2ebe 0e7a 893d ef2a adbd c8f9 fbbd
00000110: fa52 debd 6682 e03d 94b3 d73d 09bd fe3d
00000120: 41e4 443d 16ec 97bd 6b24 61bd 80ae 6b3d
00000130: 8809 173e f1f1 383d e0b6 99bd 3ca2 b0bd
00000140: be20 41be 2d02 453d 16f1 dfbd 18f6 27be
00000150: 0498 113e 6cda 00be 4f3f 80bc 2e2a 6f3d
00000160: c64f fe3a 4e86 efbd 0571 fdbd ac77 0d3e
00000170: d381 963c 061d 193e 26c0 57bd 59bd 783d
00000180: 1209 14bd b935 89bc 46f8 cfbd eb5f 8c3d
00000190: 4627 573d 954f c03b 52f3 14bd 4571 c1bd
000001a0: acd8 0a3e 922c f9bd 0116 933d a721 6fbd
000001b0: fb4b aabd 0b0a eb3c 541b d1bd c0d2 2b3d
000001c0: 47d3 463d da70 05be 2a8a e83c d1cc ab3d
000001d0: 7c9e 863d 3449 7dbc acbe 10be 36de a8bc
000001e0: edf5 7e3d 2087 5fbd 67a4 853d d914 e03d
000001f0: d91e d1bd dcb7 9d3c d5a6 a63d b7e6 c63c
00000200: d24d 2dba c483 273c 386a 22be 8825 193c
00000210: 0d95 dc3d e67e 2f3e e66e ec3d 209e d03b
00000220: 3034 803d 8939 99bd dac9 2abe 1571 2bbe
00000230: cf32 203e 1b10 c23d 28ed 04be 8824 3a3d
00000240: ee2c 1b3e 7bbe 423e 5f32 073e f662 f13d
00000250: b827 7bbd 3f4b aabd 162f 083e 68fa b53d
00000260: 5cc0 04be 4708 103e 88b1 b83d 0461 ae3d
00000270: 4f69 03be d84c 213d cc39 a0bd 8b10 0b3e
-0.12295467 0.0063294317 -0.123429455 -0.09518885 -0.112436526 0.05100047 -0.11697921 0.010959956
0.0093034385 0.09975434 -0.12531061 -0.119660065 -0.086949006 0.13486116 -0.06915246 0.1662455
0.047203686 0.011369838 0.008329443 -0.04070506 0.018791262 -0.040753752 0.006540764 0.03821212
-0.12452631 -0.0787741 0.14907077 -0.13966455 -0.021516558 0.19292909 0.08272399 0.021704124
-0.17124973 0.09929695 -0.13907188 -0.040416963 -0.052091517 -0.04740166 -0.018186234 0.15518327
0.022807796 0.14863412 0.11199362 -0.12982503 0.081539355 -0.11346951 -0.068759 0.056220923
0.041517213 0.11804641 -0.051778052 -0.007324331 0.09637524 -0.17186259 0.12815304 -0.15174502
0.007326384 -0.03709513 -0.10435733 0.03359314 0.15890697 -0.063801356 -0.10358882 -0.08212205
-0.1708874 0.06712733 -0.084554546 -0.12303501 -0.1085567 0.109623715 0.10532299 0.12438399
0.048069242 -0.07418077 -0.05496637 0.057539463 0.1474973 0.04515261 -0.07505584 -0.08624694
-0.18860146 0.048097778 -0.10934655 -0.16402471 0.14218146 -0.12583321 -0.015655188 0.058389835
0.0019402436 -0.116955385 -0.123750724 0.13815182 0.018372452 0.14952478 -0.05267348 0.06072745
-0.036141463 -0.01674925 -0.10154776 0.068542324 0.05252769 0.005868862 -0.03636486 -0.094454326
0.13559216 -0.12166704 0.07181931 -0.058381703 -0.083152734 0.028691312 -0.102102906 0.041949034
0.048541334 -0.1303133 0.028386194 0.08388675 0.06573197 -0.0154593475 -0.14135236 -0.020613771
0.06224625 -0.054572225 0.06525498 0.109414764 -0.10210962 0.01925271 0.081372894 0.024279935
-0.00066110224 0.0102242865 -0.15860832 0.009347327 0.10770617 0.17138252 0.1154459 0.006366506
0.06259954 -0.07481677 -0.16678563 -0.16742356 0.15644382 0.09475728 -0.12981093 0.045444995
0.15153858 0.19017975 0.13202809 0.117864534 -0.061317176 -0.08315133 0.13299212 0.08885652
-0.12964004 0.14065658 0.090182364 0.08514598 -0.12833141 0.039379925 -0.07823524 0.1358053

net.subgraph.layer_seq.glp_0.mlp.3.bias f4 [5]
00000000: 26ee b6bc f558 8c3d 106d ee3c 8516 9d3d
00000010: 6baa a1bd
-0.022330355 0.06852905 0.02910474 0.07670311 -0.07893833

net.subgraph.layer_seq.glp_1.mlp.0.weight f4 [32, 10]
00000000: 2cee 143e f142 51be f436 b33d e1cc 55be
00000010: c001 9bbe 57c2 86be 1c49 873e 1716 2e3e
00000020: 3c77 963e 8ba1 833e 5604 8ebe 88df 5ebe
00000030: 2f2d 4bbd ce9d 67be 6f7c 673e db2d 78be
00000040: 759f 12be db0e a2be 4ab6 2ebe 5d63 823e
00000050: ed10 863e 5eb8 633e 58f6 813e 6d2e 8b3e
00000060: 6990 a1bd 7120 123e 34e7 8f3e a294 e93d
00000070: fa4f a43e 85ac 293e 3115 523e 871d ecbd
00000080: aa9c 2a3e b0be a23c 1200 7bbd 25f6 33be
00000090: 5f61 39be 0a69 77be 6a46 5a3e 981e 6e3e
000000a0: 3883 23bd 8fba 47be e2f7 843e 48ff 3d3e
000000b0: 9c0b 1e3d 5bd8 1abe 9c40 8e3e abfa 153e
000000c0: ea11 84be 084b a23e f3cf 6f3e 527e e4bd
000000d0: ba46 313e 3274 3bbe 5d53 46bd b14f 803e
000000e0: f285 ae3c 3666 74be 2192 cdbd 257b 94bd
000000f0: 36cd 72bd ab8c e43c 677e 9e3e c267 3f3c
00000100: 8aa9 37be 7c26 b83c 8119 113e 59e4 173e
00000110: 5301 98be cbd8 61bd 6b25 76be 6e69 0abe
00000120: 3c3a c53d f54d 71be 6978 d73d 44af 883e
00000130: 812b 0d3d 7f44 58be 8ed9 dbbd fb55 753d
00000140: 9ab9 81be 2b87 273e 6fb6 9fbe bfdc 8fbe
00000150: 9010 9ebe 8b49 9cbd 9787 673e e5dc a1be
00000160: d7f7 8f3e 8b8a f0bd ce6e c53d bf34 c53c
00000170: 80c1 93be 0a58 7a3e 473d 2f3e f62d a43e
00000180: c351 203e 7419 4dbe 00eb 883e 4108 763c
00000190: 122e 0d3e 0a5c 79be d8da aebd 2fde 9bbe
000001a0: a362 d1bd 4b6c 5b3d b5f5 7abe 99cd b83d
000001b0: 63c8 243e fe7c 683d 383f 54be 573d 7abe
000001c0: 64eb e2bd 00a1 273e 7ec1 983e 51a3 4e3e
000001d0: 0fd3 3ebd 0f0d 053e 0c5e a4be e969 88be
000001e0: b881 2c3e 94b9 3ebe 5c88 353e ee2d 6ebe
000001f0: 1b38 11be dbf9 7abe 30f1 233e 18c5 5ebc
00000200: 42c8 6a3e 3aae 503e 0a55 493e 9b2f 253c
00000210: faf9 d2bd 9654 64bd cf9a 173d 5710 1e3e
00000220: ef35 63be 63e1 7f3e 8140 01bd 2341 8bbe
00000230: adad 2cbe 6d00 8a3e 6262 953e 7272 a0be
00000240: a6d5 663e a722 163e 883d 4e3e dc68 883e
00000250: 93c4 34be 5452 df3d 7cda 113e fb6d bdbd
00000260: f5ab 063e 2ea6 c0bd 6dfa 5b3e 944d 97bd
00000270: ed8a efbd 2b32 9f3d e28b f93d 2b7c 2fbe
00000280: ee6f 173d a28c 343e faa2 2cbc fa0f ed3d
00000290: 840a 98bd 360c ff3d 3873 77be 5564 2dbe
000002a0: 9ee0 37be 78ab 953e 4c9e c2bd 08c2 a6ba
000002b0: e2ca 36be 42cc 9d3e 3c2d 953e c9c2 80be
000002c0: 72d0 7ebe c6cb 80be f11e eb3b b10c afbd
000002d0: 1f86 6bbe 6edb 03be ab62 333d 177b 15be
000002e0: 5049 b93d 0ea6 c8bd 7cf3 2fbe ec5b 9d3c
000002f0: 20ba 873e 43cd 5ebe 245c 2bbb cf9f 02be
00000300: 7405 903e 5fb3 98be 08a3 a6be 80fe 993e
00000310: 74eb 5fbe e9a8 423d 3c6c d5bc cd3a 8fbd
00000320: 1e90 9bbd d5a6 4d3e e9d1 843c d2f7 9ebe
00000330: bcf9 27be 1d58 eabd 08da 233e b496 5ebe
00000340: 73b6 963e 2688 79bd 6dcc 36bd 9637 783e
00000350: 0650 3b3e 29b9 873e cf4a 4b3e bbd0 acbd
00000360: c0c7 68be 4702 38bc a85c 803e 0731 c9bd
00000370: 4933 97be 23d8 063e 2f6f 983e 2e8c 9dbd
00000380: 2311 8abe c17e 91be 69e7 ac3d a971 fcbc
00000390: 380f 14be c1e9 4f3d 54f5 f73d 74f3 823e
000003a0: 7dba 863e 7146 24bd dbe2 8abe 357c 94be
000003b0: d0d0 9d3e 7cad 0c3e 0764 1c3e 0653 90be
000003c0: f633 933e bb10 9b3e 6d69 883e b17c 85be
000003d0: 5a76 0dbe 3299 60be 2976 9c3e 21f1 18be
000003e0: 8b30 fabd 9fa1 203e 918a 23be 5256 0fbe
000003f0: cd8f 95bc ce44 8ebc 4735 6dbe 056c 7f3e
0.1454398 -0.20435692 0.08750716 -0.20878936 -0.30274773 -0.26320145 0.26422966 0.17000614
0.29387844 0.25709185 -0.27737683 -0.21764958 -0.049603637 -0.22618791 0.22606061 -0.24236242
-0.1431864 -0.3165196 -0.17061725 0.25466433 0.26184788 0.22238299 0.25383258 0.27183858
-0.07888872 0.14270188 0.2810608 0.114053026 0.32092267 0.16569717 0.20515896 -0.115290694
0.16661325 0.019866318 -0.061279364 -0.17574365 -0.1810355 -0.24161163 0.21315923 0.23253858
-0.03992006 -0.1950476 0.2597037 0.18554413 0.03858529 -0.15121596 0.27783668 0.14646403
-0.25794917 0.3169787 0.2341917 -0.11156906 0.17312136 -0.18306044 -0.048419345 0.250608
0.021304104 -0.23867115 -0.100376375 -0.072500505 -0.059277736 0.027899107 0.30955812 0.011682453
-0.17935768 0.022479288 0.14169885 0.14833201 -0.2968851 -0.05513839 -0.24037711 -0.1351678
0.09630248 -0.23564894 0.10521013 0.26696217 0.034465317 -0.21119879 -0.10734855 0.05989645
-0.25336915 0.16360156 -0.31193873 -0.28098103 -0.3087201 -0.07631215 0.22610317 -0.31613842
0.28118774 -0.11745175 0.09640275 0.024073003 -0.28858566 0.24447647 0.17113219 0.32066315
0.1565619 -0.20029241 0.2674179 0.015016616 0.13787106 -0.24351516 -0.08537835 -0.3044295
-0.102238916 0.053570073 -0.24507792 0.0902359 0.16092066 0.056759827 -0.20727241 -0.24437462
-0.110800534 0.1637001 0.29835123 0.20179488 -0.046588 0.12993263 -0.32103002 -0.26643303
0.16846359 -0.1862548 0.17727798 -0.23259708 -0.14181559 -0.24509375 0.16009974 -0.0135967955
0.22927955 0.20378962 0.19661346 0.010082151 -0.103015855 -0.05574473 0.03701287 0.1543592
-0.22188543 0.24988322 -0.031555656 -0.27198133 -0.16863127 0.2695345 0.29176623 -0.31337315
0.22542438 0.14661656 0.2014066 0.266425 -0.17653112 0.10904375 0.14243501 -0.09249493
0.13151534 -0.09406696 0.21482249 -0.07387844 -0.1169642 0.07773241 0.12184884 -0.1713721
0.03697198 0.17631772 -0.0105369035 0.11575313 -0.07423881 0.12453501 -0.24165046 -0.16932805
-0.17956778 0.29232383 -0.09502849 -0.0012722621 -0.17850831 0.308199 0.29136074 -0.2514861
-0.24884203 -0.25155467 0.0071753194 -0.085473426 -0.23000382 -0.12876675 0.04379527 -0.14597736
0.090471864 -0.097972974 -0.17182726 0.01920887 0.2650919 -0.21757989 -0.002614745 -0.12756275
0.2812916 -0.2982435 -0.32546258 0.3007698 -0.21867162 0.047524367 -0.026052587 -0.06993637
-0.075958475 0.20083173 0.016213374 -0.31048447 -0.1640386 -0.114425875 0.16001141 -0.21737176
0.29436073 -0.060920857 -0.04462855 0.24239954 0.18292245 0.26508453 0.19852756 -0.0843825
-0.22732449 -0.011231012 0.2507069 -0.09823804 -0.29531315 0.13168387 0.29772326 -0.07692753
-0.269662 -0.28417018 0.084425755 -0.030815916 -0.1445893 0.050760034 0.121073395 0.25576365
0.26314154 -0.04010624 -0.27126202 -0.29001012 0.30823374 0.13738054 0.15272532 -0.28188342
0.2875058 0.30286202 0.26642933 -0.26071694 -0.13814679 -0.2193344 0.305589 -0.14935733
-0.1221629 0.15686654 -0.15970828 -0.13997772 -0.018257046 -0.017366793 -0.23164855 0.2494355

net.subgraph.layer_seq.glp_1.mlp.0.bias f4 [32]
00000000: 0003 a43a 1a9f 5b3e 7a05 babd 95c4 913e
00000010: b837 4abe 0c94 04bd 3e87 96bc 5843 053e
00000020: aa56 673e 42ca 62bd 6644 74be b009 153e
00000030: 79c5 d33d 9a96 f53d c509 49be 0e28 603e
00000040: 6050 973e 104d 4a3c b199 87be 1e4e 533e
00000050: 4e8a 65be 57dd a53d 224f 363d 7f58 0dbe
00000060: 17d8 bf3d 79f2 86be c932 753d d4f7 3abe
00000070: 0200 34bd dd68 363d 4521 8e3e c223 05be
0.0012513101 0.21447411 -0.09083076 0.28470293 -0.19747818 -0.03236775 -0.018375035 0.13013971
0.22591653 -0.05536867 -0.23854217 0.14554477 0.10340399 0.119916156 -0.19632633 0.2189028
0.2955351 0.012347475 -0.26484445 0.20635268 -0.2241604 0.08098858 0.04450906 -0.1380329
0.09367388 -0.26356867 0.059862886 -0.18258601 -0.04394532 0.0445336 0.27759758 -0.13001922

net.subgraph.layer_seq.glp_1.mlp.1.weight f4 [32]
00000000: 0db7 813f 205d 803f a6a5 803f 69ad 813f
00000010: 98df 813f f0d0 7f3f f82d 7f3f 7914 7f3f
00000020: fdea 813f 08c7 813f ec2e 813f bc4f 7e3f
00000030: 410b 803f 417d 7e3f 30c4 803f 5edb 823f
00000040: ba0a 813f a8ea 7c3f eada 833f f4b8 803f
00000050: f360 803f 87d2 813f 0d89 803f 7cb7 823f
00000060: 2d7f 803f c784 7d3f 0266 7d3f 43c8 7f3f
00000070: 41dd 7e3f b760 803f 8154 813f 9f6a 7d3f
1.0133988 1.002842 1.0050552 1.0131046 1.014636 0.9992819 0.9967952 0.99640614
1.0149838 1.0138865 1.0092444 0.99340415 1.0003434 0.9940987 1.0059872 1.0223196
1.0081398 0.9879556 1.0301182 1.0056443 1.0029587 1.0142373 1.0041825 1.0212245
1.0038811 0.9903073 0.98983777 0.9991495 0.99556357 1.0029515 1.0103914 0.98990816

net.subgraph.layer_seq.glp_1.mlp.1.bias f4 [32]
00000000: d5df 343c 6a89 a13b 4283 85bb 114f 443c
00000010: 17a0 2f3c e35c 1cb8 a323 8b3a 013e 82bb
00000020: 97c2 2a3c 6e61 39bb b714 293c 742e fcbb
00000030: b9fd cf3b f103 d6bb a454 1d3b 9780 813c
00000040: afb9 11bb a8fa 00bc 03a6 d03c 00a3 51bc
00000050: d403 3e3b b928 243c 1d7c b8b8 734f 183c
00000060: 2a42 38bc 98ca 64bc 3a7e 15bc aa36 353a
00000070: 144d 15bc 05e9 d03a b4de b03b bfe2 4abc
0.011039694 0.004929711 -0.004074485 0.0119817415 0.010719321 -3.7279806e-05 0.0010615479 -0.0039746766
0.01042237 -0.0028286832 0.01031988 -0.0076959673 0.006347385 -0.0065312316 0.0024006749 0.015808387
-0.002223592 -0.007872261 0.025469786 -0.01279521 0.002899398 0.010019475 -8.7969216e-05 0.009296286
-0.0112462435 -0.013964318 -0.009124333 0.00069127476 -0.009112615 0.0015938586 0.005397642 -0.012383162

net.subgraph.layer_seq.glp_1.mlp.3.weight f4 [10, 32]
00000000: 32f1 e83d 6d24 18bd da00 a4bd 60a4 2dbe
00000010: 7017 36be 98d6 333e 297d 0bbd 98a7 a1bb
00000020: 77a2 843d 28aa fa3d 2c7c 0f3e 9340 033e
00000030: 6ea0 11be 32ee 1bbd 92cf f4bd 90aa f7bd
00000040: 5994 1e3d 646a 1d3e 4b7c 29be 666c ef3d
00000050: dec7 94bd 7eaa 36bd 7a11 203e ed15 ecbc
00000060: 79ad 303c 58af edbd 873b 0c3e 8102 7fbc
00000070: ac1d 14be db93 7f3d aa38 12be 754c 13be
00000080: c7c7 9e3b 1580 123e 6f76 75bd ea77 ab3d
00000090: bfbb 2d3e 1e00 db3d 5a69 e5bd c270 5abc
000000a0: 5d20 9cbd c302 25be 57e7 a3bc 1f45 0f3e
000000b0: 7418 163e 1b50 d93b 26ba 5c3d 485a 92bd
000000c0: fb0e 063e 4a14 a1bd bcf9 fcbd 6b38 3f3c
000000d0: ef2d ce3d fd75 2abe 96ce 0d3e f76f 3f3d
000000e0: 24c4 0ebe 8d20 dcbc 5147 243e c147 13be
000000f0: 1d1c 6cbd c81e 303d ca74 27be 2769 b23d
00000100: 1431 d83d 29c9 e43d 435b c3bd 1ab6 363e
00000110: e252 dbbd ecc0 3d3e 3e85 1ebe 1c4f 23be
00000120: d7ed 043e 6938 1d3d be54 093d 12af cabd
00000130: 05ca 8ebd 9057 3fbd 9e80 31be d8b7 123c
00000140: de20 073d 3055 d83b 7606 ab3d ad44 333e
00000150: b167 773d 3a88 7fbd a63b 62bd 209a bdbd
00000160: 8e51 eabd 9d29 8fbc 17a1 0bbd 4d87 a73d
00000170: 15cd 64bd 0dba 253e e37d f7bd 9b84 273c
00000180: 47e2 083e 2d51 3f3e 2d15 b5bd f58c 353d
00000190: cb04 b63c c33e 93bd 4366 2cbd cabe 783d
000001a0: 7a3c f9bd c092 0a3d 47c9 543d f390 6abd
000001b0: a1d3 193e f9a9 153b 3a35 bb3d 5e08 433e
000001c0: 7e28 24bd c841 dc3d 45d2 a1bd 5740 9ebc
000001d0: de38 87bc a229 653c 4b4b 81bd 2706 773d
000001e0: d750 b33c 9586 e93d 17ec a9bc a531 64bc
000001f0: 88d7 74bd 2e6a 34be 448e ad3d cbe1 d13c
00000200: 3cb6 8dbd 5274 5abd 58b0 443d 10e0 f2bc
00000210: 429b 063e 3a9c e13c df53 863d 4837 a53d
00000220: 1aa2 34bd b817 a33d 4952 193e 67b8 c53b
00000230: 46dd 463d a94a e5bb ab60 0b3e 7225 9fbd
00000240: 1810 bfbd e09d 923d dc7f 1bbe fa03 c03b
00000250: e114 96bd ffed c63d b35d 27be 472c e13d
00000260: 9013 363e c88a 1e3d 3ca4 0bbc 4dc5 3e3e
00000270: 08a7 79bd 00e1 033c c62d a6bd 028a e3bc
00000280: da09 553d 4d78 683c 2fd5 bdbc 0d8a 41be
00000290: e3cc 1fbc 56d3 85bb 2ec0 273d a12b fd3d
000002a0: 10b6 433e 951c c4bd b6ee cdbc 8b58 adbd
000002b0: 385a 21be 72c0 11be 6cd4 1d3e b766 b63d
000002c0: 4f67 a83d 2dc0 b03d fca0 28be 37bf 363c
000002d0: 6bce 3b3e f03c d8bd f2a2 313e 1e9a 833d
000002e0: 3421 063e 7ebe 89bd 2008 883d b3c5 1bbe
000002f0: 22a4 dcbc b402 613d a7ea 273d f57c 0b3e
00000300: c0e7 3f3e 9104 1f3e d2c3 0f3e 8e98 ea3d
00000310: d510 87bc 4629 fabd f862 1ebd b57c e3bc
00000320: 9137 afbd f890 db3d 9440 a03d 2a91 8a3c
00000330: 0759 563d 8f91 143e b6fb a23d b1de 27be
00000340: 5bfd 0dbe eeff 8c3d b981 573d ae7a 8a3d
00000350: 0750 1abe 7398 33be ba0a f03d 134c 0f3e
00000360: 5453 18be f734 723d d48f 12be 1052 063e
00000370: 98fc 463d 2a8b 393e 348a 3ebe da19 29be
00000380: 9eb2 e03d ea59 263e a6c5 d33d 3c6e f43d
00000390: c759 0fbe 3aaf 113e 9d44 2cbe 4209 453d
000003a0: d186 eebd e5cc 7cbd 2cfd 813c b3d7 72bd
000003b0: 533a cdbc 8208 21be 45bf 1ebe 2ddd a13d
000003c0: 1641 97bd 1620 d1bd 0220 a8bd 2a8c 1bbe
000003d0: 2b3a 0cbe fd92 e23d 20ef b73d 10ae c83c
000003e0: b4f3 c0bd 94db 813d 9aa1 743c 0cb2 03be
000003f0: 5fef 643d 6d91 193e 64f0 2abe a404 30be
0.11374129 -0.037144113 -0.08007975 -0.16957235 -0.17782378 0.1756233 -0.03405491 -0.004933309
0.064763 0.12239486 0.14012212 0.12817602 -0.14221355 -0.038068958 -0.119536534 -0.12093079
0.038715694 0.15372616 -0.1655132 0.11690597 -0.07264684 -0.044596188 0.15631667 -0.028819049
0.010783547 -0.1160571 0.13694583 -0.015564562 -0.14464444 0.062396865 -0.14279428 -0.14384635
0.0048455927 0.14306672 -0.0599274 0.08372481 0.1696615 0.10693382 -0.11201735 -0.013332548
-0.0762336 -0.16114335 -0.020007772 0.13991211 0.14657766 0.006631864 0.053888462 -0.07146126
0.13091652 -0.07865198 -0.123523206 0.011671166 0.10067355 -0.16646571 0.13848338 0.046737637
-0.13942009 -0.02687099 0.1604283 -0.1438284 -0.057644 0.042998105 -0.16353145 0.087114625
0.10556236 0.11171181 -0.09538891 0.17842904 -0.10709168 0.18530625 -0.15480515 -0.15948147
0.12981354 0.038383875 0.033528082 -0.09896673 -0.06972126 -0.046714365 -0.1733422 0.008954965
0.03299033 0.006601952 0.08350842 0.17506666 0.060401622 -0.062385775 -0.055232666 -0.09257913
-0.114413366 -0.017475897 -0.034089174 0.081801035 -0.055859644 0.16184254 -0.12084558 0.010224487
0.13367568 0.1868331 -0.088419296 0.04432388 0.022219082 -0.07189705 -0.042089712 0.060728826
-0.12169738 0.033831358 0.051949766 -0.05726714 0.15022136 0.0022836907 0.091410115 0.1904616
-0.04007768 0.10754734 -0.07901434 -0.019317789 -0.016506609 0.013986977 -0.06313189 0.0603086
0.021889133 0.114026226 -0.02074246 -0.013927852 -0.05977586 -0.1761863 0.08474401 0.025620362
-0.06919524 -0.053333588 0.048019737 -0.029647857 0.13145164 0.027540315 0.06558966 0.08067185
-0.044099905 0.07963508 0.14972796 0.0060339454 0.048550867 -0.0069974256 0.13611095 -0.07770814
-0.093292415 0.071590185 -0.15185493 0.005859849 -0.07328201 0.09713363 -0.16344337 0.10994773
0.177809 0.03870657 -0.008523043 0.18629952 -0.06095031 0.00804925 -0.08114199 -0.027775768
0.05201135 0.014188838 -0.023172943 -0.18900318 -0.009753439 -0.004084031 0.04095476 0.12361837
0.1911242 -0.09575764 -0.02513824 -0.08464154 -0.15757072 -0.14233568 0.15413064 0.0890631
0.082228296 0.086304046 -0.1646766 0.011153988 0.18340461 -0.10558498 0.17347315 0.0642588
0.13098603 -0.067257866 0.06642175 -0.15212135 -0.026933733 0.05493422 0.040995266 0.13621886
0.1874075 0.15529086 0.14039543 0.11454879 -0.016487518 -0.122149035 -0.038668603 -0.027769426
-0.0855552 0.1072101 0.07824817 0.016914923 0.052330997 0.14508651 0.07958166 -0.16393544
-0.13866179 0.06884752 0.052613948 0.067616805 -0.1506959 -0.17538624 0.11720796 0.13993864
-0.14875537 0.059132542 -0.14312679 0.13117242 0.048580736 0.18119493 -0.18607408 -0.16513768
0.109715685 0.16245237 0.10340433 0.11935088 -0.13999091 0.14227 -0.16823049 0.048104532
-0.11646808 -0.06171884 0.015867792 -0.059287738 -0.025052225 -0.15725902 -0.15502651 0.07903514
-0.07385461 -0.10211198 -0.0820923 -0.15190187 -0.13694064 0.11063192 0.08981156 0.024497062
-0.09421483 0.06340709 0.014931107 -0.12860888 0.055892345 0.14996882 -0.16693264 -0.1718927

net.subgraph.layer_seq.glp_1.mlp.3.bias f4 [10]
00000000: ee82 e43d 6150 0b3e c4f9 f13c db78 93ba
00000010: 0700 59bd f0da 8ebc 7ea5 e63c 861a 05be
00000020: edb5 47bd 83e0 1bbe
0.11157785 0.13604881 0.029538043 -0.0011251228 -0.05297854 -0.017438382 0.028155085 -0.12998399
-0.048757482 -0.15222363

net.self_atten_layer.q_lin.weight f4 [32, 20]
00000000: 6229 1d3e f188 03be 4841 513e bf9b 33bd
00000010: c307 14be e245 fe3d a89d c53c ff96 0a3e
00000020: 8873 c83d f353 6dbe ced2 103e b579 2cbd
00000030: 3266 cabd 1169 113e 49ff 263e 7040 49be
00000040: e4a2 a5bc d008 3c3e 515b b13d 2de7 403e
00000050: 092d b2bd 0ed0 e9bd 8b4f 503e 9ec0 c63d
00000060: ace8 443e 917e c3bd 7fc1 10be d907 19bd
00000070: 9faa 61be d7b8 aa3d 5ae3 283e d4dd 5b3d
00000080: 3cfe b4bc 8a0d e33d 5557 11be dafd 5f3e
00000090: 9fad 63be 0c58 5bbe 596d 58bd 1e09 3b3e
000000a0: c102 6c3b 945c 913d 5b2f 17be 2a2a 853d
000000b0: 7deb c2bc ba8d 903d 04b2 333e 96ed e73d
000000c0: 8aa1 0bbd f0bf 3b3b 899b 0fbe eaa3 a5bd
000000d0: adcb 143e 93a2 b7bd 9933 0e3e 2b97 b5bd
000000e0: 7e4f 55bd 13f0 9b3b f61e 52be 9c52 12bb
000000f0: 61cc fdbc eea6 b1bc d6a2 29bd 1185 393e
00000100: 7074 2e3e d159 23be 47e1 c83d 25e1 2ebe
00000110: 40a3 49be b5a3 863d d55d 573b 93a2 d5bd
00000120: 7ed8 5cbe a749 b1bd 38f4 983d 26f0 53be
00000130: 9170 5ebe 4967 e83c 0ff4 24be 5b99 48be
00000140: 2e6a d6bd 1ea1 0dbd 13ee 4dbe bff7 14be
00000150: ac06 e3ba cea5 5fbe 5985 1cbd 106a 17be
00000160: 197c 2dbe e68a b03d 0a3d 30be 1a86 2dbe
00000170: 4b94 023e c03d 2b3d 6b87 503e 6ed0 74bd
00000180: f631 ddbd 8086 a9bc 6248 943a 0fa0 2e3e
00000190: 3df2 55be 83b4 53bb db6b d63d 99b9 e0bd
000001a0: 53eb 04be 0ecd f93d aebf 61be 013c 0e3d
000001b0: 2f09 32be a53f bd3d 0fc8 43be 1fc6 0c3e
000001c0: efc0 58be a777 40be 70f5 573b a96d 343e
000001d0: 7f17 44be 8645 ccbd 721a 493e cd97 19bd
000001e0: 3781 bc3d 43bb 47be c930 a6bd c350 b9bd
000001f0: 3b89 383e 4958 db3d 9c83 41be 2580 453c
00000200: 9266 bf3b ebc4 e6bd e7c2 02be e3f6 97bd
00000210: 9d7b 343e dc23 24be 8f1b 23be 0b49 8dbd
00000220: 54ee 7e3b 2d51 793d a5df db3b a27a 5cbd
00000230: 7d49 0ebe 68ef 0dbd a2a5 b0bd a629 3f3e
00000240: 4b36 71be b683 11be b357 41be d5c1 50bd
00000250: 833f 203e ad28 3e3e 7f55 47be 2bbb 1ebc
00000260: 4d66 063e 9bdc c93d 8f8d 3b3e f23d cbbb
00000270: 75d8 19be 0d79 173e 5f09 9dbd 541e ed3d
00000280: e7fd 54bd 65bb c13d 2a6d 4e3e 1ff4 513e
00000290: 6b40 46be 22e4 16be 44ba aebd 5131 0abe
000002a0: f09d 703e 837a 2bbc 27e3 17be 0dc8 cbbd
000002b0: 1cf4 fcbd 60d6 ba3d e7b8 47be d77e 55be
000002c0: 8ab6 61be 3828 c53d 126f e23d e835 0ebe
000002d0: 31e2 3e3d b5e3 303e b7bc 1f3d 812d 21bd
000002e0: 5c67 66bb cc9b dcbc de9c e13d 95cf 25be
000002f0: 2c8a d53d 35fc f33d aaba 0abe a8f8 3a3e
00000300: e7e4 603e 2689 b4bd b044 80bd 6438 e43d
00000310: e661 33be 4319 b53d aaae 553d 2754 103e
00000320: 335e 4ebe 2400 44be 9ff7 cf3d 54a7 a53d
00000330: 1dea 4ebe 6ada 06be 5f9b 58be 9b1d 23be
00000340: 30dc ebbd 727d 3a3e 364f 36bd d982 033e
00000350: 9e73 593e 7ab3 d03d b5fa 4cbe fe72 e63d
00000360: 3cad ae3d 2878 313e fedd 61be 81d2 0c3e
00000370: 9314 433e 4e10 5bbe a266 833c 103c 3c3e
00000380: 2c0f 12be 8b14 a03d 42e7 d43d 6566 883d
00000390: 1f23 723e 12ed 433e e372 443e 8b53 e4bc
000003a0: f70a 403e 1862 55be 1a1f f7bd 70e4 43bd
000003b0: 4309 88bd 6180 533e 60ff d73d 816a 133e
000003c0: 2da2 183e 30c6 1bbe c696 e6bc c92d 483d
000003d0: aff4 2d3d 0f24 f13d b555 c4bd 6514 a0bd
000003e0: 503d 493e 03c7 82bd eb0d 1fbe c840 1b3e
000003f0: f20c 1b3e d198 8fbd 001b 37bd 72f4 28be
0.15347818 -0.12845208 0.20435059 -0.043849703 -0.14456086 0.12415673 0.024123028 0.13534163
0.09787661 -0.23176555 0.14142916 -0.042108256 -0.098827735 0.14200236 0.16308321 -0.19653487
-0.020219274 0.18362737 0.08659995 0.18838187 -0.08699996 -0.114166364 0.20342843 0.097047076
0.19229382 -0.09545625 -0.14136313 -0.037361 -0.22037743 0.08336037 0.16492978 0.05367835
-0.022093885 0.11086567 -0.14193471 0.2187418 -0.222342 -0.21420306 -0.052838657 0.18265197
0.0036012384 0.07097736 -0.14764158 0.06502183 -0.02379393 0.07058282 0.17548376 0.11324613
-0.034089603 0.002864834 -0.14024176 -0.08087905 0.14530821 -0.089665554 0.1388687 -0.088667236
-0.052077763 0.0047588437 -0.20519623 -0.002232707 -0.030981245 -0.021686044 -0.041415058 0.18117167
0.17036605 -0.15952231 0.09808593 -0.17078073 -0.19691181 0.065741934 0.0032862325 -0.10431399
-0.2156696 -0.08656626 0.07468456 -0.20697078 -0.21722628 0.028369563 -0.16108726 -0.1958975
-0.10469471 -0.03457748 -0.2011035 -0.14547633 -0.0017320714 -0.21840593 -0.038213108 -0.14786553
-0.16941871 0.08620243 -0.17210785 -0.16945687 0.12751882 0.041806936 0.20364158 -0.059769087
-0.10800545 -0.020694017 0.0011313076 0.17053245 -0.20893188 -0.0032303638 0.104697905 -0.109729
-0.12980394 0.12197314 -0.22045776 0.034725193 -0.17386316 0.09240655 -0.19119285 0.13747452
-0.21167348 -0.18795644 0.0032952689 0.17619957 -0.19149588 -0.09974198 0.19638994 -0.037498284
0.09204333 -0.19505028 -0.08114774 -0.09048607 0.180211 0.107101984 -0.18897861 0.012054478
0.0058410848 -0.11268028 -0.12769662 -0.07420137 0.1762528 -0.16029304 -0.15928482 -0.068986975
0.003889938 0.06086843 0.00671001 -0.05382789 -0.13895221 -0.034652144 -0.08625342 0.18668231
-0.23555867 -0.142104 -0.18881111 -0.050966103 0.15649228 0.18570204 -0.19466208 -0.009688179
0.13124962 0.0985653 0.18315719 -0.006202453 -0.15023978 0.14792271 -0.07667803 0.1157805
-0.051999953 0.09459571 0.2015883 0.20503281 -0.19360511 -0.14735463 -0.08531621 -0.13495375
0.23497748 -0.010466221 -0.14832745 -0.09950266 -0.12351248 0.0912292 -0.19504128 -0.20849167
-0.2204229 0.09626812 0.11056341 -0.13887751 0.04660243 0.17274363 0.038998332 -0.039350037
-0.0035156822 -0.026929758 0.11016248 -0.16192468 0.10426745 0.11913339 -0.13547769 0.18258917
0.2196232 -0.088152215 -0.06263101 0.11143568 -0.17517814 0.08842709 0.052168526 0.14094602
-0.20153122 -0.19140679 0.10154652 0.08088556 -0.20206495 -0.13169256 -0.2115302 -0.15929262
-0.11516607 0.18211916 -0.044509135 0.12842883 0.2123551 0.101904824 -0.20017512 0.11252402
0.085291356 0.17330992 -0.2205734 0.13752176 0.19050817 -0.21392938 0.01604015 0.18382287
-0.142636 0.07816418 0.103956714 0.06660155 0.2364621 0.19133404 0.19184451 -0.027871868
0.18754183 -0.20838201 -0.12066479 -0.047825277 -0.066423915 0.20654441 0.10546756 0.14396097
0.14905615 -0.15212321 -0.028148066 0.04887179 0.042469677 0.11774456 -0.0958666 -0.0781639
0.19652295 -0.06385615 -0.15532653 0.15161431 0.15141657 -0.07011569 -0.044703484 -0.16499498

net.self_atten_layer.q_lin.bias f4 [32]
00000000: 61dc b8bd d6cb 4cbe dc84 2b3e 739a c6bd
00000010: 7d36 1dbe 3612 01bc 1080 01be abb1 debd
00000020: 7516 df3d 0c19 23be 4a01 d83d 8524 1f3e
00000030: a182 463c 9dc5 d33d 1150 f1bd 1647 3f3e
00000040: 3e90 6a3e 0992 8f3d ca46 493e 1de1 5ebe
00000050: 6616 eebc 2c4c 663d e8d0 39be 105e ed3d
00000060: b5e2 c3bd abe1 92bd 7620 2abe 262b c93d
00000070: 9437 37be 544b 5ebd 37d4 e83d 92ac 253e
-0.09026409 -0.19999632 0.167499 -0.096974276 -0.15352817 -0.007877877 -0.12646508 -0.10873731
0.10892955 -0.15927523 0.10547121 0.15541275 0.012116105 0.10340426 -0.117828496 0.18679461
0.22906587 0.07010276 0.1965591 -0.21765561 -0.029063415 0.056224987 -0.18146098 0.115902066
-0.09564725 -0.07171949 -0.16613945 0.09822683 -0.17892295 -0.054271057 0.11368602 0.16179112

net.self_atten_layer.k_lin.weight f4 [32, 20]
00000000: c726 223d 849a a4bd e175 d2bd bbef 0d3e
00000010: c9b9 213d 2c64 353e fc2d a83d 5ea7 3d3e
00000020: 1f23 42be fb0b 263e 0793 e1bd 2c7a 6dbd
00000030: b03e 0fbc 4ab6 14bd 37db 523d 378c 423e
00000040: 157d 14be fac0 a63d 5b05 3dbe bb2d 0d3d
00000050: 09bc 303e a954 213e 633a 483e 521f 083e
00000060: c34c f1bc e815 333d a534 b9bd 1ce0 4c3e
00000070: 4506 d53d 6d85 2ebe 28c4 383e 11c6 7b3a
00000080: 59e3 a3bb ed43 51bd df4d 6dbd b8de 0ebb
00000090: 3e31 d8bd 4c8d 46be f9eb f1bd bd85 39bd
000000a0: d742 393e 881e 233e 9af2 0abe 3085 aabc
000000b0: 1dc5 5fbd e18a d6bd 8754 26bd 1cd4 b1bd
000000c0: 34f2 083e 10e7 cfbd fb12 423d d3ef 03be
000000d0: 1bdc 93bd 80b2 2b3e 16f9 e4bd 7a5f 34b9
000000e0: 2637 593e 2c0a 803d ec0b e1bd 25cf 08be
000000f0: f173 b3bd 4751 80bd 1401 c83d b01e 24bd
00000100: 6603 353e 2dda 0abe 5ae8 8ebd a1b1 b83d
00000110: c78e 303e 8ac1 4f3e a565 d23c 22e7 613c
00000120: 4aa4 c8bd bdd7 0a3e 9c5f 05be 1802 90bd
00000130: 8262 3dbe 3be0 4ebe 5449 fd3d 0b4e 713c
00000140: c077 2a3e fc72 3b3e 0ef8 f23d b255 cf3d
00000150: da3a 8cbd 92ca d43d 142e dc3d fcef ae3d
00000160: 704d 84bc b664 bb3c 9b7d 3fbc 7ff9 23be
00000170: fc15 573d a0e0 1fbe 9f69 e23d 32f3 15be
00000180: de98 95bd edf5 babd f62d 303e 4f90 22be
00000190: f742 e13d a670 053e a89d 383e 6b45 8a3d
000001a0: 146c e93d 0f54 2f3e 0c4f 893d 3213 be3d
000001b0: 0c38 26be 338f 19bd efb1 833c ca90 2f3d
000001c0: 5e54 6bbd 21a6 4dbe 1df9 50bd e936 a83d
000001d0: d4f3 4f3e bf9e 43be 7eb3 ee3d d545 59be
000001e0: 3729 65be 1af7 09be 7736 9cbc b443 923d
000001f0: 24a6 35be 7f4e 233e ba94 563e 9826 b13c
00000200: 5213 2d3e e07b d8bd 5946 d1bd 1bb7 babc
00000210: 40b5 1e3d 8780 14be 5f1d 2fbe 4184 973d
00000220: f1e3 943d 5eaf 6e3e 8497 c7bd cb27 a03d
00000230: 2114 c6bd ae28 f03d 72b1 fa39 eae9 333e
00000240: ede5 ce3d 11cd 2f3e 37d2 ee3d ade6 c53c
00000250: 127e 483e aa3e edbd cc0b 4d3e f4cc 5a3e
00000260: f20a 673e 3728 cdbd b63c 0bbe def4 8d3a
00000270: 7d4e b03d a966 f83d a424 ba3d 807c 433e
00000280: 641d 33bd b7a0 9dbd 127e 933d 493f 533d
00000290: 6475 fbbd 02f8 153d 0bef 2fbe 0f38 93bd
000002a0: d1ee 9abd a9f5 523e b56d 3fbe 7ea6 09be
000002b0: be41 62be af88 463d 6799 35be aca4 af3d
000002c0: db3d 1fbe 743d 22be cd81 dcbd deeb 0f3d
000002d0: 61f0 4a3e 50dc 543e 74c1 d1bc 05b7 51be
000002e0: 6230 b1bd 130a ccbd 693c 72bd 00bf b83d
000002f0: c34c d03d 3546 953d c527 6a3d fe40 c4bd
00000300: ecd6 34bc 381e d63c 714e ecbd b2d4 02bd
00000310: b9e6 11bd 7980 4abe 91e1 133e ee94 c0bc
00000320: 3637 37be c384 343e be17 ecbd d047 8d3d
00000330: c697 623e 37e3 b03c 4a93 873d fd3e b53d
00000340: d3f8 3a3e 71b5 51bd 0b79 edbd 0e79 8bbc
00000350: 7993 3f3e 7575 7d3c 14a8 143e 2743 0b3c
00000360: 4762 a23d 826c 883a 025c 793c 910c 59be
00000370: 1c1f 3fbe 3eef 283c f6a8 d93d 8199 0e3e
00000380: 7229 833c e565 d93d 3760 b53d f748 4fbe
00000390: c2e3 41be 0b4a 27be 394d 6b3c f615 18be
000003a0: 80a5 9dbd 4e54 3bbd 17f7 a53d 091f 7d3d
000003b0: 0726 553e 6c9e 3f3e 9a4a 10be f62d 0a39
000003c0: 57e8 103d 5fea 3f3e 80d8 63bd 0ea8 d5bd
000003d0: 7795 03be 635c 333e 5f8a 63bd 0b89 c0bd
000003e0: 7a01 1d3e 7981 683e 69b2 1cbc 46b8 23be
000003f0: ea2c 453e 84e3 a5bd b7d4 d3bd 33cd 19be
0.039587762 -0.08037284 -0.1027639 0.13860981 0.03948382 0.17713994 0.08211896 0.18520877
-0.1895871 0.16215508 -0.11014371 -0.05797784 -0.008742973 -0.036306657 0.05147859 0.189988
-0.1450084 0.08142276 -0.18459074 0.03446744 0.1725923 0.15754952 0.19553523 0.13293198
-0.029455548 0.043722063 -0.09043244 0.20007366 0.104015864 -0.17043085 0.18043578 0.00096044043
-0.005001467 -0.05109017 -0.05793559 -0.0021800231 -0.10556267 -0.19389838 -0.11812586 -0.04529356
0.18091904 0.15929615 -0.13569108 -0.020815462 -0.05463134 -0.10475708 -0.040607955 -0.08683035
0.13373643 -0.101514935 0.047381382 -0.12884454 -0.07219716 0.16767311 -0.11180322 -0.00017201705
0.21212444 0.0625194 -0.10988602 -0.1336027 -0.087623484 -0.062655024 0.09765831 -0.04006833
0.17677078 -0.1355979 -0.06977911 0.09018255 0.17241965 0.20288673 0.025683234 0.0137880165
-0.09796961 0.1355886 -0.13024753 -0.07031649 -0.18494609 -0.20202725 0.12367502 0.01472808
0.16647243 0.18305582 0.11863719 0.10123767 -0.068471625 0.103902 0.10750976 0.08541867
-0.016150206 0.022875171 -0.0116876615 -0.16013144 0.0525112 -0.15613031 0.11055302 -0.14643553
-0.07304548 -0.09128938 0.17205033 -0.15875362 0.10999101 0.13031253 0.18028891 0.06751522
0.113975674 0.1712191 0.0670453 0.09281005 -0.16232318 -0.03749008 0.016076056 0.04286269
-0.057453506 -0.20082904 -0.051018823 0.08213598 0.20307857 -0.19103526 0.11655329 -0.21218045
-0.22379003 -0.13473168 -0.01906894 0.071418196 -0.17739159 0.15947913 0.20955172 0.021624848
0.16901901 -0.10570502 -0.10218496 -0.02279239 0.038747072 -0.14502154 -0.17101048 0.07398272
0.07270039 0.23309085 -0.09745696 0.0782009 -0.09671808 0.11726509 0.00047815923 0.175697
0.101024486 0.1716807 0.11661189 0.024157846 0.19579342 -0.11584218 0.20024031 0.21367246
0.22562769 -0.10017436 -0.13597378 0.0010830422 0.086087205 0.12128956 0.0908902 0.19090462
-0.0437292 -0.076966695 0.072017804 0.051574025 -0.1227825 0.03661347 -0.17181031 -0.07188427
-0.07565082 0.20601524 -0.18694194 -0.13442418 -0.22095391 0.048470195 -0.177343 0.085763305
-0.1555094 -0.15843755 -0.10766945 0.03513705 0.1981826 0.20787168 -0.025604941 -0.20479973
-0.086518064 -0.09962859 -0.059139643 0.09020805 0.10170891 0.072887816 0.057166833 -0.09582709
-0.0110375695 0.026137456 -0.11538399 -0.031941123 -0.035620425 -0.19775571 0.14441516 -0.023508515
-0.17892155 0.1762877 -0.11527966 0.06898463 0.2212821 0.02159272 0.0661989 0.08849905
0.18258981 -0.051198427 -0.11595353 -0.017025497 0.187086 0.0154698985 0.14517242 0.008499897
0.07928901 0.0010408314 0.01521969 -0.211962 -0.18664211 0.010310946 0.1062793 0.13925745
0.016010974 0.10615138 0.08856242 -0.20242678 -0.18934539 -0.16336839 0.014361673 -0.14852127
-0.07697582 -0.045734696 0.08103769 0.061797176 0.20815288 0.18712777 -0.14090958 0.00013177827
0.035377827 0.18741749 -0.055626392 -0.104324445 -0.12849985 0.17515711 -0.055551883 -0.09401139
0.15332595 0.2270564 -0.009564021 -0.15988263 0.19255415 -0.08100036 -0.103433065 -0.15019684

net.self_atten_layer.k_lin.bias f4 [32]
00000000: c9de 4d3d fe8a cd3d d343 53be e7b8 333c
00000010: 0624 6dbd 6875 143e 0713 9a3d 118b b73d
00000020: 14ac 093e 9c0c 4dbd b9ba 6abc afb1 373e
00000030: d68c 38be 7845 1ebe f802 863c dd67 b5bd
00000040: 0ed0 513c 0444 4a3e f758 d4bc cc3a 43be
00000050: fc2b d0bd 1248 523e d735 49bd 17cd c8bd
00000060: 7122 ce3d f5c4 e23c 77e1 49be 9aaf 3e3e
00000070: dbf0 003e 5905 473e 8965 c83d 2766 9abd
0.050261293 0.10036276 -0.20631342 0.010969377 -0.057895683 0.14497912 0.075231604 0.08962072
0.13444549 -0.050060853 -0.014326745 0.17938875 -0.18022475 -0.15456188 0.016358837 -0.08857701
0.012805952 0.19752508 -0.025921328 -0.19065398 -0.10164639 0.20535305 -0.04912361 -0.09804743
0.10065163 0.027681807 -0.19714914 0.18621674 0.12591879 0.19435634 0.09784991 -0.07539015

net.self_atten_layer.v_lin.weight f4 [32, 20]
00000000: 862b a5bd 3569 e93d d7cb 8dbd 7219 5b3d
00000010: 98b2 58be 22ab f1bd 3077 873d e143 12bc
00000020: 17a9 e2bd c53a 54be b766 0b3e 5ca8 30bd
00000030: 1cd4 6abe e401 5c3e 4050 fd3d 2a5e 10be
00000040: 0879 32be 3fd0 693e 3657 c7ba 590e 0cbe
00000050: 2f04 fe3d 7cd9 7abd 79e8 fa3c c5de 08be
00000060: c987 38be dd00 22be d4ca cfbb 671a 27be
00000070: 77f0 553e 108a ae3c a721 b8bd 55f4 983d
00000080: df25 47be a0d2 03be 653e a93d 2d5c 4abe
00000090: 378b f13d 34cb 883c 88f1 4bbe 46a8 63be
000000a0: 8015 843d b7dc c43d 6c9a 26bd 6950 54be
000000b0: 0011 09be da0c 713c 8720 893c 830f 883d
000000c0: aeb5 f83c a962 4b39 ba6c ec3d e625 523e
000000d0: 7ce9 2b3e 90bd 413e 7c47 bbbd 3fb9 abbd
000000e0: c730 26bd 4d35 593d 147b a23d cd8f b4bc
000000f0: 2c62 1ebe 1930 2cbe dc98 473e aeb1 49bd
00000100: 9e6c acbc 9d03 16be d3a3 07be 0f58 4b3d
00000110: ec3b af3d 3ee0 d0bd 80aa c8bd eb64 283e
00000120: b3e1 0abe 6b19 3bbe 0b19 41bd ae58 493e
00000130: 4539 033d 4230 5d3c 5237 2dbd 71d6 083e
00000140: ea16 f2bd dd68 293e 17d4 d83c acca 323d
00000150: 07ed 0f3d 22b7 0cbe 905f 123e 4083 f83d
00000160: 1c1f 2cbe cfce 68be b74d 8bbd 69f6 203e
00000170: 0e2c 08be fc21 5d3e 306f d8bd 4a7f 55be
00000180: 61b8 a73d 5e78 07be 9c0d f5bc 944c 9cbd
00000190: c3de 08bd 59d7 4bbe ab6e 58be 61e4 bd3d
000001a0: 0a64 13bd fbf1 14be 7c46 05bc d497 42be
000001b0: cb14 413d 4040 e03d 180d 4f3e cf5a 42be
000001c0: 800e 38bd ae56 ef3d 6506 443e 3efd 2ebe
000001d0: 05b0 ad3d 7fd4 a33d 1fac ff3d e2d6 25be
000001e0: 48f6 273e c340 cfbd 96fa fbbd d8d4 023d
000001f0: 74db 4f3e 00fe 12be bec9 103e 2371 bfbc
00000200: 2096 993d 7519 3e3e d01c 923d 32d9 37be
00000210: 90d2 55bd 3b19 5a3d 4201 36be b6d0 3c3d
00000220: 8164 d4bd 993a 0cbd cc53 b63d daac 32be
00000230: 0164 17be 8b5d e73d d02b 74be 5349 2b3e
00000240: 2d4c 26be 7e98 0c3b b65e f43c a3ad a13d
00000250: b905 06be fefe cf3c 43f2 c83d e63c 4d3e
00000260: 877b 38be 42c2 d1bd 092c a73d 0603 093a
00000270: 6caf 29be eb9e 47be 2a06 44be 43d1 1abe
00000280: 3574 d4bd d019 21be ee3f 5ebe 2917 b73c
00000290: 0f52 163e a9e5 e5bd 5bd1 443c 3299 843b
000002a0: 3121 cb3d 863e 1ebe 7c90 053a d196 4e3e
000002b0: d660 173e f6f1 67be 2cb6 1dbd 8136 dfbb
000002c0: 3905 9ebd b098 1ebe ec85 27be 4679 153e
000002d0: aace 92bd 9205 55bc 92dc 9c3d b428 04be
000002e0: eccd c8bb 308c 053e f2fa 14be b31b 843d
000002f0: 71f4 32bc 0dfb e73d 747a 163e b3b9 593d
00000300: 567c 113c dd74 4cbe 58b0 903d 59f6 053e
00000310: d905 afbd 58e6 5cbe c762 343e ceb6 73bd
00000320: 2553 673d e017 54bd bd26 0c3e 992b 693e
00000330: 0571 1a3e d1e4 63bd f26c 133e fcbe b73d
00000340: 4626 0b3d a7b5 42be 9b55 acbd 5da1 54be
00000350: 1753 1a3e 001a 6f3e 34b9 1a3e 5de3 b43d
00000360: 3f78 423d 6197 683e 5606 ccbd 1c96 8ebd
00000370: cbe2 4ebe b224 97bc e900 833c 3d73 983d
00000380: 585d 35be b8db ddbc 90fb 55be b961 3bbe
00000390: 048d d53c d269 6ebe 1c3c 683d d1d6 56be
000003a0: 2fc8 2dbe fb9a 52bd 6e6a 6dbe 2c05 353e
000003b0: efd2 273e dee5 f8bd dca8 313d a1e4 d93d
000003c0: 58f3 783d 9fcc 3bbd f56d 4cbe 48d7 173e
000003d0: 9d64 56be b12e 76bd db67 a73c d872 92bd
000003e0: 3676 c3bd d14a 3dbe 4dd1 80bb bcd7 2cbd
000003f0: 2d89 493e c94b b8bd 7859 283e 7b41 17bc
-0.08064942 0.1139702 -0.06923645 0.053491063 -0.21161878 -0.11800219 0.0661453 -0.008927316
-0.110674076 -0.20725544 0.13613401 -0.04312931 -0.22932476 0.21485096 0.12368822 -0.1409842
-0.17428982 0.22833346 -0.0015208486 -0.13677348 0.12403142 -0.061242566 0.03062843 -0.1336623
-0.18020548 -0.15820642 -0.0063413177 -0.16318665 0.20892511 0.021306068 -0.08990794 0.07468478
-0.1944804 -0.12873316 0.08263854 -0.19761725 0.11794131 0.016698457 -0.19916356 -0.2223216
0.06449413 0.096124105 -0.040674612 -0.20733799 -0.13385391 0.014712537 0.016739143 0.066435836
0.03036007 0.00019396342 0.115441754 0.2052227 0.16788286 0.18919969 -0.09144494 -0.08384942
-0.04057386 0.053029347 0.079336315 -0.022041226 -0.15467137 -0.16815223 0.19491905 -0.049241714
-0.021047886 -0.14649816 -0.13246088 0.049644526 0.08556351 -0.10199021 -0.09798145 0.16444747
-0.1356266 -0.18271415 -0.047143023 0.19662735 0.03203704 0.013500275 -0.042289086 0.13363053
-0.11820777 0.16543908 0.02646832 0.043650314 0.035138156 -0.13741735 0.14294267 0.12134409
-0.16808742 -0.22735141 -0.06801932 0.15718998 -0.13298056 0.21594995 -0.10568082 -0.20849338
0.08189464 -0.1322951 -0.029913716 -0.076317936 -0.033415567 -0.19906367 -0.21135966 0.092720754
-0.035984077 -0.14545433 -0.008134481 -0.1900323 0.04713897 0.10949755 0.20219839 -0.18979953
-0.044935703 0.11686455 0.19143064 -0.17088792 0.08480839 0.07999515 0.12484001 -0.16195253
0.16402543 -0.10119774 -0.12303655 0.031941265 0.20298558 -0.14354706 0.14139459 -0.023369377
0.07499337 0.18564399 0.07134402 -0.17953947 -0.05220276 0.053246718 -0.17773917 0.04609748
-0.10370732 -0.03423557 0.08902702 -0.1744875 -0.14784242 0.11297139 -0.23844838 0.1672719
-0.16239996 0.0021453197 0.029830318 0.07894447 -0.1308812 0.025390144 0.09811833 0.20042762
-0.18015872 -0.1024213 0.08162696 0.0005226586 -0.16570824 -0.19494216 -0.19142976 -0.1511889
-0.10373727 -0.15732503 -0.21704075 0.02234991 0.1467974 -0.11225445 0.012012805 0.0040465826
0.0991844 -0.15453538 0.0005095077 0.2017472 0.14783034 -0.22650895 -0.03850381 -0.0068119173
-0.0771584 -0.15487933 -0.16359681 0.14597043 -0.07168324 -0.013001816 0.07659258 -0.12906152
-0.0061280634 0.13041759 -0.14548853 0.06450596 -0.010922537 0.11327181 0.1469515 0.053155612
0.008879742 -0.19966455 0.07064885 0.13082255 -0.08546037 -0.21572244 0.17615806 -0.059500508
0.056475777 -0.05178058 0.13686652 0.22770537 0.15082176 -0.05563814 0.14397028 0.08971974
0.033972047 -0.19014607 -0.084147654 -0.2076468 0.15070759 0.23349762 0.15109712 0.088324286
0.047477957 0.22713996 -0.09962146 -0.06962225 -0.20203702 -0.018450115 0.015991645 0.07443855
-0.17711389 -0.02708231 -0.20896745 -0.18298997 0.026068218 -0.23282555 0.05669795 -0.20980383
-0.16970895 -0.051417332 -0.23185131 0.17677754 0.16389059 -0.12153219 0.043373927 0.10639311
0.060778946 -0.04584944 -0.1996382 0.14828217 -0.20936818 -0.060103122 0.020435264 -0.07150811
-0.09544031 -0.18485571 -0.0039312006 -0.042197928 0.19681235 -0.0899883 0.1644038 -0.00923192

net.self_atten_layer.v_lin.bias f4 [32]
00000000: 110b aabd 1822 1b3d ac88 04be d400 4a3e
00000010: e594 a4bd 927d 3f3d 39b7 98bd 8a9e f83d
00000020: c66e 1a3b 023d 053e 1e24 46bd 1726 f9bd
00000030: 1505 923d 4f84 ffbd 5809 3cbe 4bab ab3d
00000040: 0637 05be 43cf bcbd 46d5 75bd 6d71 433c
00000050: d1a1 a7bd e00a a8bd 445b 44bd c920 273e
00000060: 83fc 4e3d c9b9 f7bd 857f 1abe c959 9a39
00000070: 0726 ac3d 7629 70bc 0c36 013e a3e7 323e
-0.08302892 0.03787431 -0.12942761 0.19726878 -0.08036212 0.046750613 -0.07456822 0.12139614
0.0023564561 0.13011554 -0.048374288 -0.12165468 0.071298756 -0.12476408 -0.1836294 0.08382281
-0.13009271 -0.092192195 -0.060017847 0.011928898 -0.08185161 -0.08205199 -0.0479386 0.163211
0.050533783 -0.120959826 -0.15087707 0.00029440064 0.08405691 -0.014658323 0.12618273 0.17471175
