logs/good_models/socialgail/best.pt (torch, 100715 bytes, 56 tensors)

log_stds f4 [1, 2]
000000 a7 dc 90 bf 26 1d 8b bf
       -1.1317338 -1.086827

net.subgraph.layer_seq.glp_0.mlp.0.weight f4 [32, 5]
000000 33 ea 54 3e 8b 26 f5 3d 8b 23 17 be c3 52 f0 be
       0.20792465 0.11970242 -0.14759652 -0.46938142
000010 64 07 9b be 29 d7 45 bd 4e d5 2b 3e 08 dd 25 3e
       -0.30279076 -0.048300896 0.16780588 0.16197598
000020 3a 53 80 3e 75 75 b5 3d d8 74 c4 3d 94 51 b1 bd
       0.25063497 0.08860294 0.09592599 -0.08658138
000030 bb f6 69 be d5 e8 92 be 2a d2 77 be c8 a0 3d 3d
       -0.22848026 -0.28693262 -0.24201265 0.04629591
000040 9a 84 2b 3d 1c 72 80 3e 79 72 bb be 0e f2 05 be
       0.041874506 0.2508706 -0.36610773 -0.13080618
000050 da 24 11 3e 18 ae c9 3e 97 43 17 be 1b 30 c4 3e
       0.14174214 0.39390635 -0.14771877 0.38317952
000060 92 23 cc 3c b3 04 9b b9 2d cc d1 3e 48 0d 05 bf
       0.024919305 -0.00029567405 0.40976086 -0.5197339
000070 54 cb b8 be 60 15 4b 3e 52 da fe bd 8e 19 e6 3e
       -0.36092627 0.19832373 -0.12443985 0.44941372
000080 2f bc a4 be 0f 59 10 be c1 18 ad bd ba 57 c0 be
       -0.32174823 -0.14096473 -0.08451987 -0.3756693
000090 f5 75 08 be 76 d1 ca 3e ff fc 9a 3e d1 63 46 3e
       -0.13326247 0.3961293 0.30271146 0.19374014
0000a0 19 86 d9 3d 49 dd 56 be 5c 80 0f 3e be f6 b6 be
       0.1062128 -0.20982851 0.14013809 -0.35735124
0000b0 cc 7a 79 bc a7 24 d1 bd 9d 0d b5 3e 1d af 8b 3e
       -0.015227031 -0.10212069 0.3536195 0.27282038
0000c0 a0 4c 65 be 2d 37 a4 be 40 a1 ec 3e f2 dc da 3e
       -0.22392511 -0.32073346 0.46216774 0.42746693
0000d0 22 81 9c 3d c9 0a db 3d b5 77 84 3e 6b 62 3e be
       0.07641818 0.106954165 0.2587258 -0.18592231
0000e0 85 28 f5 3c 93 9f 8a be 98 6c 8c be 79 dd 84 be
       0.029926548 -0.2707487 -0.274266 -0.2595022
0000f0 c4 fb 90 3e 81 31 d4 3d 48 9a a5 be 72 30 4b 3c
       0.28317082 0.103610046 -0.3234427 0.012401687
000100 76 4c 94 3e 99 d5 b4 be 72 dc 97 3d fd 2a 18 3d
       0.28964585 -0.35319212 0.074150935 0.03715037
000110 d1 5c a4 3e 6d 74 a1 3e d6 d4 9f be d5 92 f9 bd
       0.32102063 0.31534138 -0.31217068 -0.12186209
000120 e4 ee 19 3e 19 13 d6 3e b5 e8 d1 3e 5b 30 ec 3e
       0.15032536 0.41811445 0.40997854 0.46130642
000130 fc ee 30 3d df 82 4d be 08 d5 d3 3d 40 a4 ba be
       0.043196663 -0.20069455 0.10343367 -0.36453438
000140 34 62 33 bf 74 73 e5 3e c8 69 41 3d d2 99 ab be
       -0.7007172 0.44814646 0.04722002 -0.33515793
000150 2d 22 04 bd f5 54 2f 3e 9a b1 fe bc 15 a1 0b 3a
       -0.032259155 0.17122252 -0.031090546 0.00053264323
000160 05 fa 6f 3e 72 8a c7 be 47 78 7f 3d 1c f2 00 3e
       0.23435219 -0.38972813 0.062370565 0.12592357
000170 4b 31 c0 3e 02 99 29 3e d6 28 f5 be a3 72 0c bf
       0.37537608 0.16562274 -0.47882718 -0.5486242
000180 d7 15 a7 3e 99 2b c1 bd 25 2f 58 be 36 db 92 be
       0.3263385 -0.09432144 -0.21111734 -0.2868287
000190 24 12 0b 3f d6 f6 b3 3e 94 ed 48 be c7 9c 84 be
       0.54324555 0.35149258 -0.19621879 -0.25900862
0001a0 00 fe ac be ee 9b a5 3e fc 73 ae be a5 af 1a bd
       -0.33787537 0.32345527 -0.34072864 -0.037765164
0001b0 78 b2 6d 3d 48 7e 5a 3b a3 c0 05 be 54 d8 11 3e
       0.05803153 0.003333943 -0.13061766 0.14242679
0001c0 15 3a 83 be 00 9f 65 3e 69 ad 9b 3e 7e b1 27 bf
       -0.2563025 0.22423935 0.3040574 -0.65505207
0001d0 34 f6 03 3d e1 cf d6 bd 6b a7 c9 3d 2f 2f 99 3d
       0.03221722 -0.104888685 0.098463856 0.07479703
0001e0 df 69 c2 3d 03 13 0c 3e 09 04 cb be ff 72 ce 3e
       0.094928496 0.13679127 -0.39651516 0.4032211
0001f0 8b 6e b6 be 9f ca c7 be 97 17 3c bd 93 6d 5a be
       -0.35631213 -0.39021775 -0.045920935 -0.21330862
000200 b0 c1 df 3d 8f d5 0d bf 0f 9d 54 be 5a 65 19 3e
       0.10925615 -0.5540399 -0.20763038 0.14980069
000210 81 8e 9f be db 29 c8 bb b9 ee d7 3e 90 6b 2e bd
       -0.3116341 -0.006108505 0.42174318 -0.04258305
000220 5a f2 e1 bd 4f bf 64 bd e4 93 15 bd a8 1d e3 3e
       -0.11032553 -0.05584651 -0.036517993 0.44358563
000230 6a 11 f7 3e 83 1f 72 3e fa a7 e8 3e 61 8f 06 bd
       0.48255473 0.23644833 0.45440656 -0.03285158
000240 c3 bc fb be 47 fb a9 be 4f bb b6 3e f8 d1 d0 bd
       -0.4916745 -0.33199522 0.3568978 -0.10196298
000250 01 51 87 be 8f 18 5b be c7 61 0a bf 9c 91 c4 be
       -0.2642899 -0.21396087 -0.54055446 -0.3839234
000260 5d a8 75 bc 82 95 80 3e 5e 88 6f 3e fa 3e 27 bf
       -0.014993754 0.25114065 0.23391864 -0.6533047
000270 97 43 98 3e 76 d7 fa be 7a 5e da bd 3b e9 7a bd
       0.29739067 -0.4899251 -0.10662551 -0.061257582

net.subgraph.layer_seq.glp_0.mlp.0.bias f4 [32]
000000 7f b5 ae bd 2d 71 b0 bd f2 fd a4 be 7c 21 92 be
       -0.085307114 -0.086153366 -0.32224995 -0.28541172
000010 c8 8a 1b be ce 03 52 3c 29 53 e0 bd 59 b1 f0 3d
       -0.1518966 0.01281829 -0.109533615 0.117525764
000020 7f 09 85 be cb 74 7d 3d 25 1d d2 3e ca 06 02 be
       -0.25983807 0.06187896 0.4103786 -0.12697902
000030 f2 b3 b7 3e 94 c3 c9 3d 44 fe dc be 7b a5 81 3e
       0.35879475 0.09851757 -0.4316274 0.25321564
000040 25 87 a2 bd 8a 1e 2e be 37 73 bc 3e 14 6c 56 be
       -0.07935933 -0.17003837 0.36806652 -0.20939666
000050 84 ac 3e 3d e1 0f 18 be a1 5a 9d 3e eb a6 f6 3d
       0.046551242 -0.14849807 0.30733207 0.12043556
000060 21 f1 82 3e 44 e6 42 3e 71 1d ca bd 24 d2 07 bd
       0.25574592 0.19033152 -0.09868897 -0.03315939
000070 ab af 84 be c3 e0 4c 3e 62 c7 c1 3e 35 bc 47 3e
       -0.25915274 0.20007615 0.3784743 0.19505389

net.subgraph.layer_seq.glp_0.mlp.1.weight f4 [32]
000000 93 11 96 3f df ac 72 3f 7c 4c 7a 3f f7 cb 94 3f
       1.1724113 0.9479503 0.97772956 1.1624745
000010 25 7d 87 3f 23 8f 97 3f 66 13 80 3f 94 08 70 3f
       1.0585066 1.1840557 1.000592 0.9376309
000020 d8 7f 82 3f 99 76 8b 3f 49 78 86 3f 03 2f 7d 3f
       1.0195265 1.0895568 1.0505458 0.9889986
000030 54 6d 81 3f 8f 9a 7b 3f 85 0b 81 3f ef c7 85 3f
       1.0111489 0.9828271 1.008164 1.045164
000040 13 93 8c 3f d6 f2 8d 3f 85 41 75 3f 16 36 ab 3f
       1.0982383 1.1089733 0.958031 1.3375881
000050 e1 70 96 3f ab 9a 95 3f c2 f0 79 3f b4 59 8b 3f
       1.1753198 1.1687826 0.9763299 1.088675
000060 f1 e2 88 3f 77 38 7f 3f 4d 75 8a 3f 1e 3a 91 3f
       1.0694257 0.99695534 1.0817047 1.1345861
000070 f7 9d 7c 3f b3 9b 84 3f e0 4b 81 3f 57 f4 8a 3f
       0.98678535 1.0360016 1.010128 1.0855817

net.subgraph.layer_seq.glp_0.mlp.1.bias f4 [32]
000000 12 31 fb bd 37 01 74 bc b2 b3 c3 bb 90 a7 b8 3d
       -0.12265219 -0.014892868 -0.005972349 0.09016335
000010 b6 d5 48 3c 29 03 4f 3d dc be 5b 3c fb 87 25 bd
       0.012257984 0.050540123 0.013412204 -0.040412884
000020 8d ad de 3d 57 f9 ae 3c f5 03 0c bb 34 74 67 3d
       0.10872946 0.021359129 -0.0021364663 0.056507304
000030 80 36 6e 3b b6 05 33 bd b0 94 dd bc 06 a6 e7 bc
       0.0036348403 -0.04370662 -0.027048439 -0.028277408
000040 19 a4 2a 3d c4 ed 87 3c 45 a9 e4 bb 8e 41 92 3e
       0.041660402 0.016592868 -0.0069781863 0.2856564
000050 ee d6 ba bc b6 9d fd bb cd ad be 3b 24 b1 82 3c
       -0.022807565 -0.007739748 0.0058190585 0.015953608
000060 89 c2 a5 3d f7 84 a9 bc 95 b8 dd 3c b0 0c 1d 3d
       0.08093745 -0.020693285 0.027065555 0.038342178
000070 fc 52 23 3d b8 cb 9e 3b 87 2b b0 bc 91 10 9b 3c
       0.039874062 0.0048460625 -0.02150513 0.018928798

net.subgraph.layer_seq.glp_0.mlp.3.weight f4 [5, 32]
000000 9a 84 a6 be 3f 76 b5 bd 1f cd 01 be 3a 30 6d be
       -0.32523042 -0.08860444 -0.12675904 -0.23162928
000010 4b 90 85 be 24 ff 50 3e a4 fe 0e be e6 f4 39 3d
       -0.2608665 0.20409828 -0.13964325 0.04539957
000020 af 8c ae bd fe 69 36 3e 44 4c 39 be ed 02 da bd
       -0.08522927 0.1781387 -0.180955 -0.10645089
000030 95 f2 09 be 47 e9 75 3d 2f 20 02 be d1 49 d8 3d
       -0.13471444 0.060036924 -0.1270759 0.10560954
000040 f6 f0 79 3e ae 74 cd ba 0b 1b 73 bd 3e ab 0f 3e
       0.24408326 -0.0015675032 -0.059351962 0.14030167
000050 7a 23 b4 3c ee 72 ed bd e0 67 08 3d a0 20 6b 3d
       0.021989573 -0.11594187 0.033302188 0.05740416
000060 1f 6c 5e be 32 cf a5 bd 4c 36 98 3e 6b 8a f2 bb
       -0.21720932 -0.0809616 0.29728925 -0.0074017546
000070 18 c3 5d bd 2c 74 48 3e 14 bf b9 3d ae dc 81 3d
       -0.054141134 0.19575566 0.090696484 0.063409194
000080 d9 28 8d be 88 b9 3e bc f3 4c 95 bd 01 24 7c be
       -0.27570227 -0.011640914 -0.072900675 -0.2462311
000090 64 c0 03 be 2b d4 9f bb 08 8b b6 bd e0 0b ab 3d
       -0.1286636 -0.0048775873 -0.08913237 0.08351874
0000a0 72 af e6 bd 1f 46 2b 3e fb 17 17 3e d0 9c 9d bd
       -0.11263932 0.16725968 0.14755242 -0.07695925
0000b0 8d b4 01 3e d2 b1 3e be 6a df 9c bd 02 86 08 3e
       0.12666531 -0.1862252 -0.076598 0.1333237
0000c0 dc 75 82 bc 21 ed df 3d b8 66 d0 bc c9 10 06 be
       -0.01592534 0.109339006 -0.025439605 -0.1309234
0000d0 da 61 9d 3e 63 76 de be ac e4 e0 3d ae da 51 be
       0.30738717 -0.43449697 0.10981116 -0.20493576
0000e0 77 81 7f bc dc 42 b7 bd 6c 9a b3 bc 19 ca cd bc
       -0.015594832 -0.08948299 -0.02192422 -0.025120782
0000f0 07 8b e7 3d 92 1d d7 bd 27 c2 f1 bd 5a 9d f4 bd
       0.11305814 -0.10503687 -0.1180461 -0.11944075
000100 38 d4 2c be 45 02 1c 3c 44 bc 0a be ed 66 33 be
       -0.1687783 0.0095220255 -0.1354838 -0.17519732
000110 6a d1 d4 bd da b3 b1 3e 55 ab 34 3e af e7 ab 3d
       -0.10391505 0.34707528 0.17643483 0.083937995
000120 0a e1 c2 3c 9f d6 23 3d 3a f4 dd bc 10 12 0e 3e
       0.023788948 0.0399996 -0.027093995 0.13874078
000130 b1 5a 1f 3e 6c 40 8e 3c 55 1c a4 3b a8 16 47 be
       0.1556194 0.017364703 0.0050082603 -0.19442236
000140 ac c6 c6 bd a5 c5 bf 3d a3 3f 14 be c9 21 b8 be
       -0.097058624 0.093638696 -0.144774 -0.35963276
000150 44 f5 90 3e dc c8 3a be fc 9a 87 3d b4 3f 8d 3d
       0.28312123 -0.18240684 0.06621358 0.06896916
000160 53 01 21 bd 55 78 3c be a7 ff 1c 3d 30 95 cb 3d
       -0.039307903 -0.18405278 0.038329747 0.09940565
000170 cb 94 0a bd 6b 37 3f 3e 7a ba c8 bd 1a f7 14 3e
       -0.033833306 0.18673484 -0.098011926 0.14547387
000180 ab 80 c6 bc 91 1f 8b 3d 96 57 2d 3c 9f f1 4c 3d
       -0.024231276 0.0679313 0.010579964 0.050035115
000190 05 2a c5 3d d3 dd 16 bd b6 37 8d bc 53 0a fd bd
       0.09627155 -0.03683264 -0.01723848 -0.12355485
0001a0 83 66 17 3e 70 49 88 be bf d6 6b 3d cc 31 b3 3c
       0.14785199 -0.26618528 0.057577845 0.021874331
0001b0 50 34 e1 bd 93 84 24 bc d8 f9 33 be 70 89 96 3d
       -0.10996306 -0.010041374 -0.17575777 0.07350433
0001c0 2b 79 5f 3c 30 2e ac be a2 94 fe bc 0e 4c 65 3e
       0.013639729 -0.33628988 -0.031076733 0.22392294
0001d0 44 b1 12 3d 4f 09 09 bd d7 33 30 be 87 7b 58 bd
       0.035813585 -0.033456143 -0.17207275 -0.05285218
0001e0 5f d7 4e 3d c8 36 f8 bc dc 5a b2 3d 79 4e 85 3e
       0.050498363 -0.03029956 0.08708736 0.26036432
0001f0 35 fc 3b be e3 8f 89 bd ed 27 88 3d 84 5c d5 bc
       -0.18357928 -0.06716897 0.0664824 -0.026045091
000200 15 ec 01 be 94 1c 6f 3b 72 13 26 be 41 02 20 3d
       -0.12687714 0.003648554 -0.16218355 0.03906465
000210 c0 24 c3 3d 2b 57 96 3d aa 59 c8 3d a4 b2 35 3d
       0.09528494 0.07340845 0.09782727 0.044359818
000220 ec bc 00 3e 89 51 1c bd 3a 60 41 be 8e ce 37 be
       0.12572068 -0.038163695 -0.18884364 -0.17949888
000230 15 e7 0d 3e 98 20 ea 3d 2f 6e d9 bd 42 7b b1 3c
       0.13857682 0.11431998 -0.10616719 0.02166522
000240 7b 2e b2 3e 28 54 82 3e b7 09 de 3d bf 2d de 3e
       0.34801087 0.2545483 0.10841697 0.43394276
000250 ee b6 87 bd 79 ed ec 3d 6c 3c df 3d a2 68 0d 3e
       -0.06626688 0.11568732 0.109001964 0.13809446
000260 fc 47 1d be 25 e8 0f 3e 39 89 87 3e 12 d5 4f 3e
       -0.15359491 0.140534 0.2647188 0.20296124
000270 5b 74 e3 3c fd db 37 bc 98 04 97 bd 79 88 0f 3e
       0.027765444 -0.011221883 -0.07373923 0.14016904

net.subgraph.layer_seq.glp_0.mlp.3.bias f4 [5]
000000 cb c1 e5 bc 10 f1 85 3d d6 15 4d 3d 67 56 a7 3d
       -0.02804651 0.0654012 0.050069652 0.08170777
000010 72 7c a6 bd
       -0.08129205

net.subgraph.layer_seq.glp_1.mlp.0.weight f4 [32, 10]
000000 f3 54 36 3e ee 2f d7 be 51 08 b7 3d 32 5c 1a be
       0.17805843 -0.42028755 0.08937133 -0.15074232
000010 0e 81 73 be ed 75 62 be 96 a1 ed 3d c3 57 7b 3e
       -0.23779699 -0.22115298 0.11603086 0.24545197
000020 4a 92 d6 3e e2 8a a8 3e ec c6 7e be 92 fe 52 be
       0.41908485 0.3291846 -0.2488057 -0.20604923
000030 98 ae 1b 3c 97 64 a6 be 5d 28 88 3e ba a4 4e be
       0.009502076 -0.3249862 0.26593295 -0.20180026
000040 23 95 27 be c1 4c e1 be 1d 1b 5e be f3 ec 29 3e
       -0.16365485 -0.4400387 -0.2169003 0.16594295
000050 76 f6 1c 3e 75 97 d9 3d 20 c9 2f 3e c5 70 7f 3e
       0.15328392 0.10624591 0.17166567 0.24945362
000060 61 2e 93 bc 80 d4 b3 3d 21 13 fe 3b a0 91 75 3e
       -0.017966451 0.087807655 0.007753745 0.23981333
000070 c7 ab 92 3e 50 54 cc 3e fe fa 72 3e 79 6a b6 bd
       0.2864668 0.39908075 0.23728558 -0.08907027
000080 b4 94 bf 3b 96 ce 4b 3d 98 ce 0b be 48 cf 89 be
       0.005846584 0.049757563 -0.13653028 -0.26915956
000090 46 c3 29 be 80 08 0a bf 1d 46 7d 3e 7b 37 54 bd
       -0.16578397 -0.5391922 0.24733777 -0.051810723
0000a0 68 5a f9 bd 76 5a 69 be 2a 87 9a 3e e7 df 56 3e
       -0.12175447 -0.22788414 0.30181247 0.2098385
0000b0 d0 5a f4 3c 43 bd 40 be 97 d1 bf 3e 41 be fe 3d
       0.029828459 -0.18822198 0.37464592 0.12438632
0000c0 1e 53 a5 be 82 af 81 3e 95 1d b8 3e 82 81 34 3b
       -0.32289976 0.25329214 0.3596007 0.0027543013
0000d0 0e dd 85 3e a5 b4 6f be 65 50 1e 3b 85 b9 dc 3e
       0.26145214 -0.23408754 0.0024156806 0.4311029
0000e0 b6 33 20 3e ba 81 b3 be 9f 56 dc 3d b3 80 60 be
       0.15644726 -0.3505991 0.10758709 -0.21924095
0000f0 07 06 e1 bc 5d 59 1e 3e f1 29 86 3e 15 8e 8c 3d
       -0.027468694 0.15463777 0.26203874 0.068630375
000100 40 bd 91 be 12 67 7b 3c 77 10 21 3e 8b 36 4e 3e
       -0.284647 0.015344398 0.15728937 0.20137994
000110 e9 58 94 be 7d cc 57 3b bb f9 ce bd 9a 14 82 bd
       -0.28974083 0.003292828 -0.10106226 -0.06351586
000120 28 48 a8 3e db f3 a3 be 8a df 06 3e 75 38 8a 3e
       0.3286755 -0.32021984 0.13171211 0.26996198
000130 0d a0 68 3e 1d ef 92 be 65 71 95 bd 5f b2 93 bd
       0.22717305 -0.28698054 -0.07297019 -0.07211756
000140 cf 9b 05 be 46 54 0a 3e 62 7d 4b be 2d 1d 75 be
       -0.13047718 0.1350871 -0.19872048 -0.23936911
000150 0e 14 4e be 7f 08 67 3e 39 72 09 3c 0b 80 7d be
       -0.20124838 0.22561835 0.008389049 -0.24755876
000160 72 7b f9 3e ed 1d fc bc d1 4d 04 3d 73 36 92 bd
       0.48726994 -0.030775988 0.032300774 -0.071392916
000170 13 44 7e be ad ca 54 3e 2f cc 70 3e 23 56 04 3f
       -0.24830656 0.2078044 0.2351539 0.51693934
000180 dd 76 f1 3d ac dd 50 be e0 35 13 3e c3 d6 29 3e
       0.117902495 -0.20397061 0.1437602 0.16585831
000190 62 ab b5 3b 9e 32 cd be 52 28 48 bd d9 29 5b be
       0.005544112 -0.4007768 -0.048866577 -0.21402682
0001a0 14 89 2b bd 8d 25 81 3c 27 5f cc be a0 e2 a7 3d
       -0.041878775 0.015764976 -0.39916345 0.08197522
0001b0 cc 63 ab 3e 8b 93 4f 3e a0 95 57 be e7 8f 50 be
       0.33474576 0.20271127 -0.21053171 -0.20367394
0001c0 6e 21 9d bd ef c6 8a 3d 3d 56 a1 3e 32 c1 84 3e
       -0.07672392 0.06776225 0.31511107 0.25928646
0001d0 19 d2 f0 3b 2b 82 36 3d 86 a9 a5 be 45 80 53 be
       0.0073492643 0.04455773 -0.323559 -0.206544
0001e0 8b 78 0c 3e 14 d6 6d be 70 e2 81 3e ce a9 b3 be
       0.13717858 -0.23226196 0.2536807 -0.35090488
0001f0 f9 c0 c6 bd 04 46 c8 be 61 25 0d 3e 5d 66 9f bd
       -0.09704775 -0.39115918 0.1378379 -0.07783196
000200 1c cc 8d 3e 04 f3 21 3e 16 a0 4c 3e 41 7c 3d be
       0.27694786 0.1581536 0.19982943 -0.1850443
000210 14 2d 4e be f1 b2 15 3d 4c d1 08 3e 8c 31 a8 3e
       -0.20134383 0.036547605 0.1336109 0.328503
000220 b8 5b 06 be 37 d4 01 3f a5 ec db bd e4 65 8d bd
       -0.13120925 0.5071444 -0.10738496 -0.069042
000230 62 fd 4c be 41 52 e3 3e f8 cd 83 3e 11 c5 41 be
       -0.20018533 0.44398692 0.2574308 -0.18922831
000240 83 a6 79 3d 59 b5 46 3e 99 f3 a2 3e a1 17 57 3e
       0.060949814 0.19405116 0.31826475 0.21005107
000250 6b ed 04 be ab d9 cf bc df ed 8d 3e 6b 9d 6f be
       -0.12981193 -0.025372347 0.27720544 -0.23399894
000260 e9 8b d2 3d 8d 11 57 bd 16 6a ab 3e 41 97 2e be
       0.10280592 -0.052506972 0.33479375 -0.17049886
000270 99 28 ed bd 11 cd ec 3d 43 f9 11 3e 4b cb b4 be
       -0.11580009 0.11562551 0.14255242 -0.3531135
000280 9b 57 b9 3c 92 22 54 3e f2 b9 5c be e9 ae a5 3d
       0.022624781 0.20716313 -0.21555308 0.08090002
000290 bb 32 38 be 2b ff 57 3e e3 a8 82 be 14 86 18 be
       -0.17988102 0.21093433 -0.25519475 -0.14894897
0002a0 f5 a8 08 be 98 58 91 3e 10 cd 9f 3c 0d 8b 6c bd
       -0.13345702 0.28387904 0.019506961 -0.057749797
0002b0 e5 1f 66 be d7 c0 c2 3e 82 63 9f 3e 28 83 09 be
       -0.22473104 0.3803775 0.31130606 -0.13428938
0002c0 29 a8 84 be 09 08 4a be 02 0c 9f 3d 4d f5 fb 3d
       -0.25909546 -0.19729628 0.07765962 0.12302647
0002d0 13 c1 c8 be f7 c8 15 bd e4 ac b1 3d 6c 01 94 bd
       -0.39209804 -0.036568608 0.086755544 -0.07226834
0002e0 3f b3 af 3c 00 c4 4d be 0d fe 9a 3c 62 74 9e bc
       0.021447776 -0.200943 0.018919969 -0.019342605
0002f0 06 08 0f 3f 29 55 d8 be 51 92 2d 3d 39 f0 e9 bd
       0.5587162 -0.42252472 0.042375866 -0.11422772
000300 bb 27 c8 3e 13 9b b2 be 5c ef 8d be 14 f2 9a 3e
       0.39092812 -0.34883937 -0.2772168 0.30262816
000310 80 66 98 be 76 c5 27 3e 5a 6e 75 3d 19 78 ee 3d
       -0.297657 0.16383919 0.059919693 0.116440006
000320 e2 7e 05 be 12 08 42 3e 70 f3 42 bd 2a d9 bc be
       -0.13036683 0.18948391 -0.04759544 -0.36884433
000330 3e 34 93 be 1b ce f7 bd 3a 32 02 3e 50 a4 a9 be
       -0.28750795 -0.120998584 0.12714472 -0.33133173
000340 ea ba 6e 3e ca 2f 44 be c6 63 78 bc c2 de 67 3e
       0.2331349 -0.19158855 -0.015160507 0.22643569
000350 e4 a1 df 3d 23 8e a0 3e 6f b9 0f 3e 35 10 21 be
       0.1091955 0.31358442 0.14035581 -0.15728839
000360 b2 60 91 be 47 88 bb bd ee b9 bf 3e b8 48 87 bd
       -0.28394085 -0.09156852 0.3744654 -0.06605667
000370 ad 90 94 be e8 98 81 3d e8 d2 92 3e f9 a9 6f be
       -0.2901663 0.06327993 0.28676534 -0.23404683
000380 7e 4a 73 be f9 ff 25 be 16 6f 5e 3d 64 dd 35 bd
       -0.23758885 -0.16210927 0.05430516 -0.044400588
000390 4a ce 4c be 16 81 c3 3d 73 d0 0c 3d b4 8d ab 3e
       -0.20000568 0.095461056 0.03437848 0.33506548
0003a0 7a ef 94 3e 3b a2 d1 bc 35 e6 8f be e1 97 c2 be
       0.29088956 -0.025590053 -0.28105322 -0.380065
0003b0 5e 51 93 3e 7a ec 3e 3e 34 04 d6 bb da a0 1e bd
       0.28773016 0.18644896 -0.006531263 -0.03872762
0003c0 46 03 91 3e 65 60 df 3e d6 20 9e 3e b5 cb 4a be
       0.2832281 0.4362823 0.30884427 -0.1980427
0003d0 0a fb 8e be 34 ae 75 be 8f 06 a8 3e d8 0c c8 bd
       -0.27925903 -0.23992234 0.32817504 -0.09768075
0003e0 0e 61 84 be 4e 5e 34 3e 6e 4e 8e be dd 89 ec bd
       -0.25855297 0.176141 -0.27794212 -0.11549733
0003f0 c5 e7 db bc b6 7e 71 bc d9 e8 3b be 6d be 3e 3d
       -0.026843915 -0.014739683 -0.18350543 0.046568323

net.subgraph.layer_seq.glp_1.mlp.0.bias f4 [32]
000000 6f 41 87 bb 05 44 6b 3e 94 62 13 bd f1 89 71 3e
       -0.0041276733 0.22975166 -0.035982683 0.23587777
000010 cb 96 d1 bd e9 7d 50 3c 96 db 6e bd 10 6f ee 3d
       -0.102338396 0.012725332 -0.058314882 0.11642277
000020 d2 d0 f5 3d c1 c9 43 bc 4d 9b 9e bd bc a4 0e 3e
       0.1200272 -0.011949957 -0.07744465 0.13930029
000030 1a c4 c2 3d 60 ad c9 3d b7 14 3d be f2 2e 35 3e
       0.0951006 0.09847522 -0.18464933 0.1769369
000040 2e e2 91 3e bf 2d 05 bd 07 5b 08 be 7d 4c 66 3e
       0.28492874 -0.03251433 -0.13315974 0.22490115
000050 4c 42 5f be 5d 39 86 3c 33 d8 1e 3d 61 7c c5 bd
       -0.21802634 0.016384775 0.038780402 -0.09642864
000060 7e a9 d9 3d 14 e2 32 be 61 89 1b 3e 10 cf d7 bd
       0.10628031 -0.17469054 0.15189125 -0.10537541
000070 e9 d0 cd bc 00 f6 e4 3d 21 a1 7d 3e 37 62 29 bd
       -0.02512403 0.11179733 0.24768497 -0.04135343

net.subgraph.layer_seq.glp_1.mlp.1.weight f4 [32]
000000 31 f5 8a 3f 0f d0 8a 3f 79 0e 96 3f 27 46 89 3f
       1.0856076 1.0844744 1.1723167 1.0724534
000010 e7 eb 81 3f 8d b7 a2 3f 2a ab 95 3f bc 2f 8e 3f
       1.0150117 1.2712265 1.169286 1.1108317
000020 34 9e 8b 3f 3e 09 91 3f da a9 96 3f 7f 08 8e 3f
       1.0907655 1.1330945 1.1770585 1.1096343
000030 98 e0 85 3f ed 3b a3 3f c7 49 8a 3f 4f f4 97 3f
       1.0459166 1.2752663 1.0803765 1.1871432
000040 12 91 8c 3f 45 3a 85 3f f0 24 a0 3f 8b 68 96 3f
       1.0981772 1.0408407 1.2511272 1.1750654
000050 8a e5 8f 3f da 66 8d 3f 17 14 89 3f 74 58 90 3f
       1.1241925 1.1047013 1.0709256 1.1276994
000060 d2 0a 9d 3f ff 48 8f 3f 86 5f 8a 3f ee ed 8e 3f
       1.2268927 1.1194152 1.0810401 1.116636
000070 c0 0e 9e 3f c9 7c 89 3f 51 e1 81 3f 5e 47 9d 3f
       1.2348251 1.0741206 1.0146886 1.2287405

net.subgraph.layer_seq.glp_1.mlp.1.bias f4 [32]
000000 72 4d 93 3d 36 98 b6 3d 3d e3 7f bd 39 9c 56 3d
       0.07192506 0.08915751 -0.06247257 0.05239508
000010 f0 76 8e 3d 5f f8 43 3c 48 ff 15 3d 5d 3d db 3d
       0.06956279 0.011961072 0.03662041 0.107050635
000020 4b a1 30 3d c8 50 6b 3c 4a 18 13 3e dd 4c 8e 3d
       0.04312257 0.0143625215 0.14364734 0.06948254
000030 00 67 b5 3d 91 63 c5 3d 0d 60 b0 3b 48 10 8f 3c
       0.08857536 0.096381314 0.005382544 0.017463818
000040 44 db 9b 3d c9 da c7 bb 50 c9 0d 3e aa 13 0a 3e
       0.07610181 -0.0060990793 0.13846326 0.13484064
000050 2e a3 24 bd ba 59 56 3d 21 ab 8b 3d 36 39 31 3d
       -0.040194683 0.052331664 0.068197496 0.04326745
000060 47 65 95 3d 04 16 37 3e 23 3e dc 3d 74 97 a2 3c
       0.07294708 0.17879492 0.10754039 0.01984761
000070 5b cb f5 3d 17 b0 1c 3d c3 16 aa 3d 9b 1f 44 3d
       0.120016776 0.03825387 0.08305123 0.047881704

net.subgraph.layer_seq.glp_1.mlp.3.weight f4 [10, 32]
000000 07 ae 95 3e 68 f3 91 bc 4c 04 76 3d 7c 06 3e be
       0.29234335 -0.01781626 0.06006269 -0.18557161
000010 4c 55 1b be 9a 20 cf 3e 9c da 39 be 15 07 29 3d
       -0.15169257 0.4045456 -0.18149799 0.04126652
000020 46 e7 34 3d 29 dc 80 3d 7c 79 b4 3e c2 88 24 3e
       0.044165872 0.06291992 0.35248935 0.16067794
000030 fb 8d 92 bd 23 66 8d 3d 37 01 4e bd 26 d3 be bd
       -0.07155987 0.06904247 -0.050294127 -0.09317617
000040 dc 3b 56 3d 0d 90 44 3e b6 b9 58 be dd af 54 3e
       0.05230318 0.19195576 -0.21164593 0.20770212
000050 23 bf c9 bc 88 00 fa bb 33 94 28 3e 32 e8 9b bd
       -0.024627274 -0.007629458 0.16462784 -0.07612647
000060 42 8e 2a 3d 50 73 ac be cb 0f 7e 3e 7c ff 59 be
       0.041639574 -0.33681726 0.24810712 -0.21288866
000070 9a 57 32 be c0 86 ac bc 3c 56 99 bd 06 57 c9 bd
       -0.1741623 -0.021060348 -0.07487151 -0.098310515
000080 f0 c0 ee bd e8 b5 5c 3e 4a dc 21 be 82 89 eb 3d
       -0.11657894 0.21553767 -0.1580669 0.11500837
000090 c3 c9 0b 3e 9d 9e 27 3e 7b 71 18 be 5f 4c e1 3d
       0.13651185 0.163691 -0.1488704 0.11000895
0000a0 c7 31 b0 3c 8c 95 30 be 68 c8 d2 bd c2 c6 79 3e
       0.02150811 -0.17244548 -0.10292131 0.24392226
0000b0 e0 6e d7 3d 9a bd 98 bc fd 9c 8c 3d 1e 34 8f bd
       0.105191946 -0.018645097 0.06865881 -0.069923624
0000c0 dd 61 5e 3e 3a bb 0d be 46 9f 32 bd a9 5c 12 3e
       0.2171702 -0.13840953 -0.043608926 0.1429316
0000d0 01 3e 36 3e bf 8d 3d be 26 ea 69 3e 02 e3 27 bd
       0.1779709 -0.18511103 0.22843227 -0.040987976
0000e0 ac 02 dc bd 95 d7 b1 bc d0 c4 64 3e 28 37 8c be
       -0.10742697 -0.021709243 0.22340703 -0.2738583
0000f0 62 28 92 3d 5a b2 83 3d 92 00 2c be a3 ff 63 3e
       0.07136609 0.06430502 -0.16797093 0.22265486
000100 84 0d 50 3e f6 5c 39 3e 99 ba b0 be bb af 79 3e
       0.20317656 0.18101868 -0.34517363 0.24383442
000110 27 7f 4a bd 04 9b 9e 3e d2 f7 ac be e4 0b d3 bd
       -0.04943767 0.30977643 -0.33782822 -0.10305002
000120 b0 67 dc 3d 93 75 14 3b 60 6d 40 3d 61 31 27 bb
       0.10761964 0.0022653088 0.046979308 -0.002551161
000130 3f f7 d7 bd dc 8f 81 bd 16 27 52 be a0 53 68 bc
       -0.10545205 -0.06326267 -0.20522723 -0.014180094
000140 5a 65 5e 3d ec 00 14 3d 41 89 50 3e 13 0b 6e 3e
       0.054295875 0.03613369 0.20364858 0.23246412
000150 8d e4 95 3e 0a 19 28 bd 68 3c 2a bc 95 9a 96 be
       0.29275933 -0.041039504 -0.010390379 -0.29414812
000160 e3 71 2f be 41 75 de bd 3c 0d 1d bb c2 a1 84 be
       -0.17133288 -0.10862208 -0.0023964187 -0.2590466
000170 0e bc 7e bd da bf 3f 3e c9 1c 01 be a7 3e c3 3c
       -0.06219106 0.1872553 -0.12608637 0.023833586
000180 65 37 48 3e ac 19 2e 3e 53 93 b9 3c 36 6d 1e 3e
       0.19552381 0.1700198 0.022653257 0.15471348
000190 bc 3d 7a 3d 41 14 d1 3d 6c 47 f2 3d f3 66 b7 3d
       0.06109403 0.10208941 0.11830029 0.08955183
0001a0 30 66 7a be 3a 4b 67 3d 1e 9c 59 3e ab e2 a4 bd
       -0.24453044 0.056468226 0.2125096 -0.08051046
0001b0 ae 2f 4c 3e 09 ea 47 3e 97 43 8e 3e f8 71 98 3e
       0.19940063 0.19522871 0.27785942 0.2977445
0001c0 36 81 11 be e6 6b 3f 3e 33 7b 5f 3d 60 0e 4a 3d
       -0.14209446 0.18693504 0.05456085 0.049330115
0001d0 30 3e 92 3e 02 46 97 3d 2f e2 e9 bc f7 ec 70 3e
       0.2856307 0.073864 -0.028550236 0.23527895
0001e0 aa 71 97 3e 30 9c 98 bd 7a e8 5b bd 22 a1 fb 3d
       0.29578906 -0.074516654 -0.053688504 0.12286593
0001f0 e4 a9 10 be e6 32 8d bd f0 8c 47 3e ec 3d d7 3d
       -0.14127308 -0.06894474 0.19487357 0.105098575
000200 4f 81 9d 3d 10 47 2a be a8 7a d4 3d 91 4d cc bd
       0.07690679 -0.1662867 0.10374957 -0.09975732
000210 3c 78 2c 3e bc 10 5f be 62 31 54 3e 7f fe 2f bd
       0.16842741 -0.21783727 0.20721963 -0.042967316
000220 a5 50 21 be d6 ac 23 3e 35 68 6b 3e d7 be 0a be
       -0.1575342 0.159839 0.2298897 -0.13549362
000230 ba 80 ad 3d bf a8 00 be 53 b8 42 3e 99 65 c9 bd
       0.08471818 -0.12564372 0.19015627 -0.09833831
000240 f7 c6 42 be 71 d4 f4 3d 6a 0c e0 be d9 ba 1f bd
       -0.19021212 0.119545825 -0.4375947 -0.03899655
000250 b7 c8 8b bd d0 ec 51 3e fb 73 34 be 97 24 5c 3e
       -0.06825393 0.20500493 -0.17622368 0.21498333
000260 a2 ad 79 3e 2d 7d 9e 3c b7 55 cf bd f4 0c 2f 3e
       0.24382642 0.019346798 -0.10123771 0.17094785
000270 05 05 87 be cc b5 36 3d ae ec bf bd f5 9b 24 be
       -0.26371017 0.04460697 -0.09371315 -0.16075118
000280 c2 4c 9f bd 45 0a d8 3d d4 40 86 be 77 ed fd bc
       -0.07778312 0.10548834 -0.26221335 -0.030997021
000290 16 4e 88 3d 6e f1 46 3d 6d c4 d4 3d ec 42 91 3e
       0.06655519 0.04857009 0.10389028 0.2837137
0002a0 e1 e8 45 3e 33 2a f0 bd 3d 8c af bd 98 53 9a 3d
       0.19327118 -0.11726799 -0.0857167 0.075354755
0002b0 b5 91 de bd 94 cb b4 bd 3e df 19 3e a2 80 4a 3e
       -0.10867635 -0.08827892 0.15026566 0.19775632
0002c0 70 e2 29 3e 03 0a 8d 3d 19 73 0f be a2 8b 19 3e
       0.16590285 0.06886675 -0.1400875 0.14994672
0002d0 9b 2d bf 3e b5 64 4a be 80 c7 59 3e 51 dc af 3d
       0.37339482 -0.19764979 0.2126751 0.08586944
0002e0 6e 54 3a 3e 44 bc 07 be 38 7a bd 3d a1 af 1e be
       0.1819627 -0.13255411 0.09251827 -0.15496685
0002f0 5a cd 0a bd d9 62 fc 3d 2d 8a 00 3e 47 8c 8e 3e
       -0.033887245 0.12323541 0.1255271 0.27841398
000300 ef 0e 87 3e 05 bd 22 3e b9 ac 9d 3e b8 36 b0 3d
       0.2637858 0.15892418 0.3079584 0.08604187
000310 26 2c e8 bd 4d ae 91 bc 1b 59 c8 bd 48 b0 36 3d
       -0.11336546 -0.017783308 -0.097826205 0.04460171
000320 6c 64 e1 bd 17 0e 8b 3e cd d5 61 3e bf 3a b7 3d
       -0.11005482 0.27159187 0.22054215 0.08946752
000330 73 18 7a 3d 49 e2 a5 3e 9b d9 5e bc 1f 96 4f be
       0.061058473 0.32399204 -0.013601686 -0.2027211
000340 0d c2 ff bd 40 8e fa 3d 07 99 62 3d 01 08 88 3e
       -0.12488184 0.12234163 0.05532172 0.26568606
000350 43 8c 20 be 85 de 40 be d8 7d d7 3d c5 43 3a 3e
       -0.15678506 -0.18834884 0.1052205 0.18189915
000360 87 89 0b be ce 47 5b 3e f3 0c 1e be 2a 6e a4 3e
       -0.13626681 0.2141411 -0.15434627 0.32115299
000370 fd 3d 1a 3e b7 58 3c 3e 64 2e cc bd c4 8b 34 bd
       0.15062709 0.18393217 -0.09969786 -0.044078603
000380 e1 72 17 3e bf 67 5b 3e 29 37 f4 bd 58 20 3f 3e
       0.14789917 0.21426295 -0.119245835 0.18664682
000390 0d c7 ea bd 43 39 aa 3e 0c d6 d8 bd c8 08 ec 3d
       -0.11463747 0.33246812 -0.10587701 0.115251124
0003a0 f2 97 bf bd f4 99 03 be ee f6 36 3d 2e 2a 15 bc
       -0.09355153 -0.12851697 0.044669084 -0.009104295
0003b0 fc ab 28 bd 0e 1c 64 be ff 38 1d bd 96 70 a2 3d
       -0.041179642 -0.22276327 -0.038384434 0.0793163
0003c0 37 ec 6c bc 44 51 8e bd 12 cb 94 3d 80 d6 21 bd
       -0.014460615 -0.06949094 0.07265295 -0.039511204
0003d0 fd 85 83 3d 16 44 49 3e c6 1b 37 3e e4 59 cf 3d
       0.064220406 0.19654879 0.17881688 0.10124567
0003e0 95 04 a7 3d 62 99 49 3d 0e cc 08 3e ec bf 76 be
       0.08155171 0.049218543 0.1335909 -0.2409665
0003f0 91 88 b5 3d ac e3 7b 3e 41 57 36 be 26 b3 70 bd
       0.088639386 0.24598569 -0.17806722 -0.0587646

net.subgraph.layer_seq.glp_1.mlp.3.bias f4 [10]
000000 17 f5 17 3e eb 7b 49 3e 35 cb 5a 3d 45 cc 26 3d
       0.14839588 0.19676177 0.05341645 0.04072215
000010 31 e4 ec bd ff d1 7b 3d f1 c7 8a 3d ce 6c 87 bd
       -0.115669616 0.061479565 0.06776417 -0.0661255
000020 08 13 87 3d 28 81 45 be
       0.06595427 -0.1928755

net.self_atten_layer.q_lin.weight f4 [32, 20]
000000 65 5d 07 3c 7d 1f d6 be f8 2b d5 3c 5a 92 5e be
       0.008262013 -0.418209 0.026021942 -0.21735516
000010 27 51 25 3e f6 29 29 be b6 ff d9 bd 77 12 94 3b
       0.16144238 -0.16519913 -0.10644476 0.0045188027
000020 a8 07 34 be bf 55 0d 3d ce d2 10 3e b5 79 2c bd
       -0.17581046 0.034505602 0.14142916 -0.042108256
000030 32 66 ca bd 11 69 11 3e 49 ff 26 3e 70 40 49 be
       -0.098827735 0.14200236 0.16308321 -0.19653487
000040 e4 a2 a5 bc d0 08 3c 3e 51 5b b1 3d 2d e7 40 3e
       -0.020219274 0.18362737 0.08659995 0.18838187
000050 44 5d 11 be ed da ab be aa 33 1b 3d 9a 4e 84 bc
       -0.14195734 -0.33565465 0.037891068 -0.016150761
000060 c2 41 d4 3e 4d 84 88 be 26 7d 40 be aa 16 33 be
       0.4145642 -0.26663437 -0.1879774 -0.17489114
000070 82 97 b3 be 29 32 91 3e 5a e3 28 3e d4 dd 5b 3d
       -0.3507653 0.28358582 0.16492978 0.05367835
000080 3c fe b4 bc 8a 0d e3 3d 55 57 11 be da fd 5f 3e
       -0.022093885 0.11086567 -0.14193471 0.2187418
000090 9f ad 63 be 0c 58 5b be 59 6d 58 bd 1e 09 3b 3e
       -0.222342 -0.21420306 -0.052838657 0.18265197
0000a0 5b 4c 2e 3e 38 e1 c8 3e 47 5f 7a 3d b8 8f 91 3e
       0.17021315 0.39234328 0.06112602 0.2842996
0000b0 80 3f a2 be 2b 10 c8 3e 49 3e 8d 3e 11 b8 ab 3e
       -0.31689072 0.39074835 0.27586582 0.3353887
0000c0 7c 20 94 3e 15 77 55 be 89 9b 0f be ea a3 a5 bd
       0.28931034 -0.20846207 -0.14024176 -0.08087905
0000d0 ad cb 14 3e 93 a2 b7 bd 99 33 0e 3e 2b 97 b5 bd
       0.14530821 -0.089665554 0.1388687 -0.088667236
0000e0 7e 4f 55 bd 13 f0 9b 3b f6 1e 52 be 9c 52 12 bb
       -0.052077763 0.0047588437 -0.20519623 -0.002232707
0000f0 01 6f 16 bc 0f 52 6d be 12 d0 53 be e9 43 8a 3e
       -0.009181739 -0.23175834 -0.20684841 0.27004936
000100 52 93 ef 3e d0 ae 8a be 79 6b fd bc 58 90 83 be
       0.46792084 -0.27086496 -0.030935036 -0.25696063
000110 ed cd 78 be 29 60 a6 3e d5 5d 57 3b 93 a2 d5 bd
       -0.24297304 0.3249524 0.0032862325 -0.10431399
000120 7e d8 5c be a7 49 b1 bd 38 f4 98 3d 26 f0 53 be
       -0.2156696 -0.08656626 0.07468456 -0.20697078
000130 91 70 5e be 49 67 e8 3c 0f f4 24 be 5b 99 48 be
       -0.21722628 0.028369563 -0.16108726 -0.1958975
000140 bb 1b 72 be dc cf 6e be f2 ad cd be b3 b9 d5 be
       -0.23643391 -0.2332148 -0.40171772 -0.4174324
000150 45 52 18 3e fd 4c ca be 1d b3 04 be 08 52 b1 be
       0.14875133 -0.39511862 -0.12958951 -0.34632897
000160 db cb c6 be 8e 19 58 3e 0a 3d 30 be 1a 86 2d be
       -0.38827404 0.21103498 -0.17210785 -0.16945687
000170 4b 94 02 3e c0 3d 2b 3d 6b 87 50 3e 6e d0 74 bd
       0.12751882 0.041806936 0.20364158 -0.059769087
000180 f6 31 dd bd 80 86 a9 bc 62 48 94 3a 0f a0 2e 3e
       -0.10800545 -0.020694017 0.0011313076 0.17053245
000190 78 fa 4f bd a7 08 b5 3e 2b 3d d1 3e d1 bb e2 3d
       -0.050775975 0.35358164 0.4086698 0.110709794
0001a0 e2 a1 f1 be de 1a b9 3e 1b 57 0b bd ca 72 b8 3e
       -0.4719382 0.3615331 -0.034018617 0.36025077
0001b0 1d 61 bd 3d 79 c2 d3 bd 0f c8 43 be 1f c6 0c 3e
       0.092470385 -0.10339827 -0.19119285 0.13747452
0001c0 ef c0 58 be a7 77 40 be 70 f5 57 3b a9 6d 34 3e
       -0.21167348 -0.18795644 0.0032952689 0.17619957
0001d0 7f 17 44 be 86 45 cc bd 72 1a 49 3e cd 97 19 bd
       -0.19149588 -0.09974198 0.19638994 -0.037498284
0001e0 8b 39 8f bd bf 79 eb be c1 05 96 be 9c ce d8 be
       -0.06993397 -0.45991322 -0.29301265 -0.4234513
0001f0 e7 c8 b8 3e e5 7c 01 be c7 ad 8b be 3a 60 6d be
       0.36090776 -0.126453 -0.2728102 -0.23181239
000200 55 83 a0 be d7 f0 7f 3c e7 c2 02 be e3 f6 97 bd
       -0.31350198 0.015621386 -0.12769662 -0.07420137
000210 9d 7b 34 3e dc 23 24 be 8f 1b 23 be 0b 49 8d bd
       0.1762528 -0.16029304 -0.15928482 -0.068986975
000220 54 ee 7e 3b 2d 51 79 3d a5 df db 3b a2 7a 5c bd
       0.003889938 0.06086843 0.00671001 -0.05382789
000230 d5 4f 65 3d 91 ba 8d 3e c9 5b 62 3e bc c1 f1 3e
       0.055984337 0.276814 0.22105326 0.4721812
000240 d0 ca 04 bf 0a f8 e6 3d f4 26 cf bc 6d ea 85 3e
       -0.5187197 0.112777784 -0.025287129 0.26155415
000250 57 4f 00 3f 12 51 3f 3d 7f 55 47 be 2b bb 1e bc
       0.50121063 0.046708174 -0.19466208 -0.009688179
000260 4d 66 06 3e 9b dc c9 3d 8f 8d 3b 3e f2 3d cb bb
       0.13124962 0.0985653 0.18315719 -0.006202453
000270 75 d8 19 be 0d 79 17 3e 5f 09 9d bd 54 1e ed 3d
       -0.15023978 0.14792271 -0.07667803 0.1157805
000280 3b ed 4a bc 7a e2 ad 3d 77 56 aa 3e 9b f1 a4 3e
       -0.012385662 0.084904626 0.33269092 0.3221558
000290 76 60 54 be 17 ea 51 be 52 ab 1a 3d 2a 45 39 bc
       -0.20739922 -0.20499454 0.03776104 -0.011307994
0002a0 5d b3 6e 3e f8 b6 9b 3d 27 e3 17 be 0d c8 cb bd
       0.23310609 0.07603258 -0.14832745 -0.09950266
0002b0 1c f4 fc bd 60 d6 ba 3d e7 b8 47 be d7 7e 55 be
       -0.12351248 0.0912292 -0.19504128 -0.20849167
0002c0 8a b6 61 be 38 28 c5 3d 12 6f e2 3d e8 35 0e be
       -0.2204229 0.09626812 0.11056341 -0.13887751
0002d0 07 c3 42 3e 34 8e c5 3e d4 01 8f 3e b8 4e 22 3e
       0.1901971 0.38585055 0.27931082 0.15850341
0002e0 f2 b5 0f be cc ab 16 3e 0f 5a 55 3e cf 99 df 3d
       -0.1403425 0.14713973 0.20835136 0.109180085
0002f0 07 58 b2 3e 43 0c 80 3d aa ba 0a be a8 f8 3a 3e
       0.34832785 0.06252339 -0.13547769 0.18258917
000300 e7 e4 60 3e 26 89 b4 bd b0 44 80 bd 64 38 e4 3d
       0.2196232 -0.088152215 -0.06263101 0.11143568
000310 e6 61 33 be 43 19 b5 3d aa ae 55 3d 27 54 10 3e
       -0.17517814 0.08842709 0.052168526 0.14094602
000320 af c1 61 be e1 34 ce bd 90 88 9e 3e 28 bd 37 3e
       -0.2204654 -0.100686796 0.30963564 0.17943251
000330 de 12 ef be 4a c4 03 be f4 d5 bd bd c4 07 0f bd
       -0.46694082 -0.12867847 -0.09269324 -0.034919515
000340 c4 07 36 bd 38 60 2c 3e 36 4f 36 bd d9 82 03 3e
       -0.044441 0.1683358 -0.044509135 0.12842883
000350 9e 73 59 3e 7a b3 d0 3d b5 fa 4c be fe 72 e6 3d
       0.2123551 0.101904824 -0.20017512 0.11252402
000360 3c ad ae 3d 28 78 31 3e fe dd 61 be 81 d2 0c 3e
       0.085291356 0.17330992 -0.2205734 0.13752176
000370 dd 14 9f 3e 36 3b b9 38 56 0b 4f 3e 68 75 b1 3e
       0.31070605 8.832516e-05 0.20219168 0.34659886
000380 cc e0 b1 be 8a af 85 3e dc db 5f 3e 1f 2c 6c 3e
       -0.3474182 0.26110488 0.21861213 0.23063706
000390 a4 6f d4 3e 00 bb 50 bc e3 72 44 3e 8b 53 e4 bc
       0.41491425 -0.012739897 0.19184451 -0.027871868
0003a0 f7 0a 40 3e 18 62 55 be 1a 1f f7 bd 70 e4 43 bd
       0.18754183 -0.20838201 -0.12066479 -0.047825277
0003b0 43 09 88 bd 61 80 53 3e 60 ff d7 3d 81 6a 13 3e
       -0.066423915 0.20654441 0.10546756 0.14396097
0003c0 5d 9d a4 3d 20 7b d0 be ab 17 ec bd 49 05 94 bd
       0.08037827 -0.40718937 -0.11527952 -0.072275706
0003d0 d8 8c bf 3e 29 f5 8a bd 8d f0 0a be 2a a1 1c be
       0.37412143 -0.06785042 -0.13568325 -0.15295854
0003e0 2e 12 1a 3c b6 b3 fe 3d eb 0d 1f be c8 40 1b 3e
       0.009403748 0.12436621 -0.15532653 0.15161431
0003f0 f2 0c 1b 3e d1 98 8f bd 00 1b 37 bd 72 f4 28 be
       0.15141657 -0.07011569 -0.044703484 -0.16499498

net.self_atten_layer.q_lin.bias f4 [32]
000000 9c f6 ce be 61 04 cd be 45 ac ee 3e cd 9e 96 be
       -0.40422523 -0.40042403 0.46615806 -0.2941803
000010 96 0c b5 be 04 57 81 3e 40 58 b6 be 6a d9 0b 3e
       -0.35361165 0.252617 -0.35614204 0.13657156
000020 0b df 95 3d e6 49 99 bc 6a 7a 26 3e 9c 4c c6 3e
       0.07317933 -0.018711995 0.16257635 0.38730323
000030 f1 d8 71 be 35 d9 c0 3e 05 87 90 3d c2 9e 08 3d
       -0.23617913 0.37665716 0.07057003 0.03335453
000040 c4 3b 0f 3f 03 b1 97 3d 7a 42 03 3d c5 98 65 be
       0.5595057 0.07406809 0.03204582 -0.22421558
000050 e1 a5 27 be 1c 4a 36 be 14 40 34 be dc d7 96 3e
       -0.16371872 -0.17801708 -0.17602569 0.29461563
000060 86 6b b0 be 61 ee bd be de f7 af be c6 1e a3 3e
       -0.34457034 -0.3709593 -0.34368795 0.31859416
000070 8c 91 b2 be 7b e0 8a be c9 cf cb 3e 01 84 05 b9
       -0.34876668 -0.2712439 0.39806965 -0.00012733044

net.self_atten_layer.k_lin.weight f4 [32, 20]
000000 43 d1 43 be 8c ca f9 bd 17 ec 2e be fb ea 9e 3d
       -0.19122796 -0.12196836 -0.17082249 0.07759663
000010 98 d8 6c bd 4f 4a 12 3e 5f 04 7d 3d 08 ae 3b 3e
       -0.057823747 0.14286159 0.061771747 0.18328106
000020 ea 2f b7 be bc ce d8 3c 36 27 97 be 20 e9 c9 bd
       -0.35778743 0.026465766 -0.29522103 -0.09858918
000030 74 e1 ae bd ed e9 a5 be 91 c8 8d be 33 bb 81 3d
       -0.085390955 -0.32405034 -0.27692083 0.063345335
000040 42 ff 62 be ed 46 9e 3c c2 7f 00 bf f5 f8 b9 bd
       -0.22167686 0.01932093 -0.5019494 -0.09080688
000050 cf c7 20 3d 83 48 84 3d bb 13 bf bc cb c0 98 3d
       0.039253052 0.06459143 -0.023324838 0.07458647
000060 07 24 6f bc 8f 24 21 3d b0 0d 5e be d4 4a c6 3d
       -0.014595992 0.039341506 -0.21684909 0.09682241
000070 90 d0 cf bc 17 b5 12 be 10 ae 33 3c 96 cc fe bd
       -0.025368005 -0.14326893 0.010966793 -0.124413654
000080 bd c4 6d be 71 4f a0 be 71 e0 83 be 0a fd c0 bd
       -0.23219581 -0.3131061 -0.25757173 -0.09423263
000090 01 3e 9f be f8 ae bc be 0f 9b d3 be 0b 16 ef bd
       -0.31101993 -0.3685224 -0.41329238 -0.11674126
0000a0 8e 6c ae 3e bd 94 83 3e ea 62 3a 3d 40 43 9d 3d
       0.34067196 0.25699416 0.045504488 0.076788425
0000b0 2e d6 ab bc aa 09 af bd 6d be 51 3d ea 3a ca bb
       -0.020976152 -0.08546765 0.051206995 -0.006171574
0000c0 b6 43 9c 3e 4e 52 78 bd 2c 2e 64 3e 3a 66 02 3c
       0.3052041 -0.060625367 0.22283238 0.007958943
0000d0 59 ed 00 3e f6 40 f8 3e d2 de 17 3e 18 4b cd 3d
       0.12590541 0.4848706 0.14831093 0.100240886
0000e0 8c 42 c7 3e c8 b7 5b 3e 36 94 82 3e b7 6f c6 3b
       0.3891796 0.21456826 0.255037 0.006055798
0000f0 5d 4e 5b be 10 7f 2e be 0b 85 e6 bd ba bd bf bd
       -0.21416612 -0.17040658 -0.11255845 -0.09362359
000100 45 c8 64 3e 9f af 22 be 2b f8 63 be 4f 92 d0 bc
       0.22342022 -0.15887307 -0.22262637 -0.02546039
000110 44 c7 d8 3b f3 ac 7b 3e f5 57 22 be 19 52 14 be
       0.006615551 0.24577694 -0.15853865 -0.14484443
000120 cc 21 ad be 74 d5 fa bd 7c 6c 8a be d4 d3 3c be
       -0.33814847 -0.12247744 -0.27035892 -0.18440181
000130 d0 7f d6 be 5e 5c cb be 22 e9 58 be 46 0c 48 bd
       -0.41894388 -0.39718908 -0.21182683 -0.04883983
000140 ae 7c 29 bd f2 d2 9d 3d e5 73 08 3c b6 50 01 bd
       -0.04137867 0.0770625 0.008328413 -0.031571113
000150 5d ac fc bd 82 f2 9f 3d b0 12 59 3d d6 09 2c 3d
       -0.12337563 0.078099266 0.052996337 0.042001568
000160 b4 64 75 be cf 95 d2 bd 8c 3f 11 be e8 4f 84 be
       -0.23964196 -0.1028248 -0.14184397 -0.25842214
000170 d2 6d bb bd 54 ca fc be 4d 73 13 be fb d5 65 be
       -0.09151806 -0.49373114 -0.14399453 -0.22444908
000180 a1 27 5a be 97 c0 3b be 5b 62 4c be 3a b0 a7 be
       -0.2130418 -0.18335186 -0.19959395 -0.32751638
000190 09 dc 67 3e 6d 34 71 3e 1a aa a1 3e 3a c9 02 3e
       0.2264253 0.23555155 0.3157509 0.12772074
0001a0 31 55 ba 3d cf 13 4c 3e 29 39 4e 3e 0f ae 2b 3e
       0.0909828 0.19929431 0.20138992 0.16765617
0001b0 8e 5b 1f 3d e8 8a 94 3b e8 24 06 3e 69 e6 3f 3e
       0.038905673 0.0045331605 0.13100016 0.18740238
0001c0 fc c2 11 3e a2 bd 87 3d 9f 18 00 3e d6 64 31 3e
       0.14234537 0.066279665 0.12509392 0.17323622
0001d0 3b c6 de 3e d1 19 d2 bc 82 b4 00 3f 49 2c 5f bd
       0.43510613 -0.025647076 0.50275433 -0.054485593
0001e0 46 8f d7 be be f4 97 be 32 85 4d be 9c 27 9d bd
       -0.42101496 -0.2967891 -0.20070341 -0.076735705
0001f0 7b 65 6c be 31 8e f9 3d fe 27 b1 3d c2 f7 b2 bd
       -0.23085587 0.12185324 0.08650206 -0.08738662
000200 96 68 90 bd 6a c5 72 be bb b4 8b be fa 76 5d be
       -0.07051198 -0.2370812 -0.27286324 -0.21627417
000210 ea 6e 44 be d5 10 04 bf 8e 4b e5 be 45 6e 0d bd
       -0.19182935 -0.51588184 -0.44784206 -0.03452899
000220 b8 8d 10 be 35 04 77 3d 01 0a 07 bf ae 67 cd bd
       -0.14116561 0.060306747 -0.5274964 -0.10029541
000230 ca 57 11 3e 66 37 7c 3e dd 68 e3 3c 4b d5 c6 3e
       0.14193645 0.24630508 0.027759964 0.38834605
000240 e6 f7 48 3e e8 83 57 3e 6d 74 3f 3e 05 7a 9f 3d
       0.19625816 0.21046412 0.18696757 0.07786945
000250 c2 e9 f2 3e a8 95 33 3e 25 36 91 3e 1d 8b a4 3e
       0.47443968 0.17537558 0.28361621 0.32137385
000260 28 5d 9a 3e 07 89 83 3e 9d 33 40 3d b4 e7 a4 3d
       0.30149198 0.2569048 0.046924222 0.08052006
000270 dd c5 61 3e b4 c0 3e 3e 51 0c 02 3f b5 ff bf 3e
       0.22048135 0.18628198 0.50800043 0.37499776
000280 0b 0d e1 3c 2d 03 b9 3d b4 89 ea 3d 50 52 95 3e
       0.02747204 0.09033809 0.11452046 0.29164362
000290 74 95 55 3c 85 2e 15 3e d6 af 08 be 4a d3 2e 3d
       0.013036121 0.14568527 -0.13348326 0.04268197
0002a0 e7 ec 33 3e f9 7b e0 3e 76 4e 58 be 55 4b 38 3d
       0.1757084 0.43844584 -0.2112368 0.044993717
0002b0 a5 c6 19 be c6 ff c3 3e 7c b5 98 bb 9d 71 3e 3e
       -0.15017183 0.38281077 -0.0046603065 0.18598028
0002c0 0a 99 86 bd 71 84 d1 bd 08 dc 74 3e b4 a4 64 3e
       -0.06572159 -0.10230339 0.2391206 0.22328454
0002d0 85 f3 d2 3e ea 64 a6 3e a2 66 04 3d 63 6c e7 bd
       0.41201416 0.32498866 0.03232444 -0.1129997
0002e0 90 27 5d bc 1d 5b d9 bc 1d c3 81 bc 03 76 f2 3d
       -0.013498202 -0.026532704 -0.015840108 0.11838915
0002f0 eb 8f 91 3e 6c ca 97 3e 99 5d d0 3d af 3e ac bc
       0.28430113 0.29646623 0.10174102 -0.021025984
000300 21 15 f4 3d 16 50 9b 3e a4 63 9f 3d 6e 31 2f 3d
       0.119180925 0.30334538 0.07782677 0.04277175
000310 d8 29 9f 3d a6 24 19 be bb 55 ec 3e 5b 8f 16 3e
       0.07771653 -0.14955387 0.46159157 0.14703123
000320 33 4e d7 be 53 7f 32 3e 14 6d 1e bd 25 58 ab 3d
       -0.4205185 0.17431383 -0.038678244 0.083664216
000330 48 c7 6a 3e 68 ea b9 3c b0 0e 1d 3e e5 29 b7 3d
       0.22927582 0.022694781 0.15337634 0.089435376
000340 9a 47 1e 3e 07 68 58 be c1 e1 8b be 02 e4 4e 3d
       0.15457001 -0.21133433 -0.27320674 0.050510414
000350 a6 09 8b 3e e1 11 35 3d 71 f4 2e 3e 6d e8 fc 3b
       0.271558 0.044206504 0.17085434 0.007718137
000360 95 27 2b 3e 0e b4 c4 bc 08 55 64 3d 59 e5 3d be
       0.16714318 -0.024011638 0.055745155 -0.1854452
000370 ad 74 51 3d 4b 36 08 3e 17 7f 69 3e 4d 54 97 3e
       0.05113666 0.13301961 0.22802387 0.29556504
000380 6c 20 db 3d dc c1 1b 3e 7f c1 08 3e 02 84 1d be
       0.10699543 0.1521067 0.13355063 -0.15382388
000390 68 44 8c 3d f3 72 c3 3c a0 c6 2c 3e 3e b5 19 bd
       0.06848985 0.023858523 0.16872644 -0.03752636
0003a0 b4 0d 6e 3d 4e bb a0 3e 18 48 bd 3e 1d c5 2a 3e
       0.058118537 0.31392902 0.36969066 0.16676755
0003b0 5f 05 a7 3e 0f 4e 8b 3e ea c8 83 3e f2 4e 32 3e
       0.32621285 0.2720799 0.25739223 0.17412928
0003c0 8e 3f 8e 3d dc ca 58 3d 58 40 74 be 94 9e 01 be
       0.06945716 0.052927837 -0.2385267 -0.12658149
0003d0 6a f7 0b be 0b 68 d0 3d e4 06 18 be 7a ff 43 be
       -0.136686 0.101760946 -0.14846379 -0.19140425
0003e0 1d c9 21 bd d8 77 82 3e b8 9d 56 bd 87 29 ab be
       -0.039498437 0.2548206 -0.052396506 -0.3343012
0003f0 39 eb fb 3a 06 9d 63 be 67 de 8c be 70 0b 5f be
       0.0019219882 -0.22227868 -0.2751343 -0.21781707

net.self_atten_layer.k_lin.bias f4 [32]
000000 fe bb 4d 3d d1 69 cc 3d 24 ff 52 be e3 28 2a 3c
       0.05022811 0.099811204 -0.20605141 0.010385725
000010 82 57 6e bd 50 c6 14 3e ba 4f 99 3d 41 19 b8 3d
       -0.058188923 0.14528775 0.0748591 0.08989192
000020 f9 d8 09 3e ac 65 4c bd c9 47 67 bc 4d 19 38 3e
       0.13461675 -0.04990165 -0.014116236 0.17978401
000030 ae 00 39 be 6a 0f 1e be 73 8f 88 3c af 3b b6 bd
       -0.18066666 -0.15435567 0.016669964 -0.088981025
000040 78 7d 59 3c f4 17 4a 3e 27 42 d6 bc 4a 1c 43 be
       0.013274543 0.197357 -0.02615459 -0.1905376
000050 9c c0 d0 bd 72 1a 52 3e ba 90 48 bd e2 3c c8 bd
       -0.10192987 0.205179 -0.048966147 -0.097772375
000060 e1 ae cd 3d 8f 42 e0 3c a0 ec 49 be 6b e3 3e 3e
       0.10043121 0.027375488 -0.19719172 0.1864144
000070 18 ce 00 3e a7 93 46 3e 06 21 c9 3d 78 83 9b bd
       0.12578619 0.19392262 0.09820752 -0.07593435
